…
2024-01-29 11:45:13,356 INFO:Validation dataset shape for task FER: 400
2024-01-29 11:45:13,357 INFO:Validation dataset sample shape for task FER - x: torch.Size([3, 100, 100]), y: torch.Size([])
2024-01-29 11:45:13,357 INFO:Validation dataset shape for task AV: 56
2024-01-29 11:45:13,360 INFO:Validation dataset sample shape for task AV - x: torch.Size([3, 100, 100]), y: torch.Size([2])
2024-01-29 11:45:13,360 INFO:------------------------------------------------------------
2024-01-29 11:45:13,361 INFO:Task order: ['AU', 'AV', 'FER']
2024-01-29 11:45:13,377 INFO:Net(
  (layer1): Sequential(
    (0): Conv2d(3, 24, kernel_size=(3, 3), stride=(1, 1), padding=(1, 1))
    (1): ReLU()
    (2): BatchNorm2d(24, eps=1e-05, momentum=0.1, affine=True, track_running_stats=True)
    (3): Conv2d(24, 24, kernel_size=(3, 3), stride=(1, 1), padding=(1, 1))
    (4): ReLU()
    (5): BatchNorm2d(24, eps=1e-05, momentum=0.1, affine=True, track_running_stats=True)
    (6): MaxPool2d(kernel_size=(2, 2), stride=(2, 2), padding=0, dilation=1, ceil_mode=False)
    (7): Dropout(p=0.4, inplace=False)
  )
  (layer2): Sequential(
    (0): Conv2d(24, 48, kernel_size=(3, 3), stride=(1, 1), padding=(1, 1))
    (1): ReLU()
    (2): BatchNorm2d(48, eps=1e-05, momentum=0.1, affine=True, track_running_stats=True)
    (3): Conv2d(48, 48, kernel_size=(3, 3), stride=(1, 1), padding=(1, 1))
    (4): ReLU()
    (5): BatchNorm2d(48, eps=1e-05, momentum=0.1, affine=True, track_running_stats=True)
    (6): MaxPool2d(kernel_size=(2, 2), stride=(2, 2), padding=0, dilation=1, ceil_mode=False)
    (7): Dropout(p=0.4, inplace=False)
  )
  (layer3): Sequential(
    (0): Conv2d(48, 96, kernel_size=(3, 3), stride=(1, 1), padding=(1, 1))
    (1): ReLU()
    (2): BatchNorm2d(96, eps=1e-05, momentum=0.1, affine=True, track_running_stats=True)
    (3): Conv2d(96, 96, kernel_size=(3, 3), stride=(1, 1), padding=(1, 1))
    (4): ReLU()
    (5): BatchNorm2d(96, eps=1e-05, momentum=0.1, affine=True, track_running_stats=True)
    (6): MaxPool2d(kernel_size=(2, 2), stride=(2, 2), padding=0, dilation=1, ceil_mode=False)
    (7): Dropout(p=0.4, inplace=False)
  )
  (layer4): Sequential(
    (0): Conv2d(96, 192, kernel_size=(3, 3), stride=(1, 1), padding=(1, 1))
    (1): ReLU()
    (2): BatchNorm2d(192, eps=1e-05, momentum=0.1, affine=True, track_running_stats=True)
    (3): Conv2d(192, 192, kernel_size=(3, 3), stride=(1, 1), padding=(1, 1))
    (4): ReLU()
    (5): BatchNorm2d(192, eps=1e-05, momentum=0.1, affine=True, track_running_stats=True)
    (6): MaxPool2d(kernel_size=(2, 2), stride=(2, 2), padding=0, dilation=1, ceil_mode=False)
    (7): Dropout(p=0.4, inplace=False)
  )
  (flat): Flatten(start_dim=1, end_dim=-1)
  (fc1): Linear(in_features=6912, out_features=192, bias=True)
  (fc2): Linear(in_features=192, out_features=96, bias=True)
  (last2): Linear(in_features=96, out_features=48, bias=True)
  (last): ModuleDict(
    (FER): Linear(in_features=48, out_features=7, bias=True)
    (AU): Linear(in_features=48, out_features=12, bias=True)
    (AV): Linear(in_features=48, out_features=2, bias=True)
  )
)
2024-01-29 11:45:13,377 INFO:233
2024-01-29 11:45:13,378 INFO:====================== AU =======================
2024-01-29 11:45:13,378 INFO:Incremental class: Old valid output dimension: 0
2024-01-29 11:45:13,378 INFO:Incremental class: New Valid output dimension: 12
2024-01-29 11:45:13,378 INFO:Epoch:0
2024-01-29 11:45:13,379 INFO:Itr		Time		  Data		  Loss		Acc
…
2024-02-03 13:27:11,971 INFO:Validation dataset shape for task FER: 400
2024-02-03 13:27:11,972 INFO:Validation dataset sample shape for task FER - x: torch.Size([3, 100, 100]), y: torch.Size([])
2024-02-03 13:27:11,973 INFO:Validation dataset shape for task AV: 56
2024-02-03 13:27:11,974 INFO:Validation dataset sample shape for task AV - x: torch.Size([3, 100, 100]), y: torch.Size([2])
2024-02-03 13:27:11,974 INFO:------------------------------------------------------------
2024-02-03 13:27:11,975 INFO:Task order: ['AU', 'AV', 'FER']
2024-02-03 13:27:17,772 INFO:CustomVGG16Face(
  (vgg16_face): VGG(
    (features): Sequential(
      (0): Conv2d(3, 64, kernel_size=(3, 3), stride=(1, 1), padding=(1, 1))
      (1): ReLU(inplace=True)
      (2): Conv2d(64, 64, kernel_size=(3, 3), stride=(1, 1), padding=(1, 1))
      (3): ReLU(inplace=True)
      (4): MaxPool2d(kernel_size=2, stride=2, padding=0, dilation=1, ceil_mode=False)
      (5): Conv2d(64, 128, kernel_size=(3, 3), stride=(1, 1), padding=(1, 1))
      (6): ReLU(inplace=True)
      (7): Conv2d(128, 128, kernel_size=(3, 3), stride=(1, 1), padding=(1, 1))
      (8): ReLU(inplace=True)
      (9): MaxPool2d(kernel_size=2, stride=2, padding=0, dilation=1, ceil_mode=False)
      (10): Conv2d(128, 256, kernel_size=(3, 3), stride=(1, 1), padding=(1, 1))
      (11): ReLU(inplace=True)
      (12): Conv2d(256, 256, kernel_size=(3, 3), stride=(1, 1), padding=(1, 1))
      (13): ReLU(inplace=True)
      (14): Conv2d(256, 256, kernel_size=(3, 3), stride=(1, 1), padding=(1, 1))
      (15): ReLU(inplace=True)
      (16): MaxPool2d(kernel_size=2, stride=2, padding=0, dilation=1, ceil_mode=False)
      (17): Conv2d(256, 512, kernel_size=(3, 3), stride=(1, 1), padding=(1, 1))
      (18): ReLU(inplace=True)
      (19): Conv2d(512, 512, kernel_size=(3, 3), stride=(1, 1), padding=(1, 1))
      (20): ReLU(inplace=True)
      (21): Conv2d(512, 512, kernel_size=(3, 3), stride=(1, 1), padding=(1, 1))
      (22): ReLU(inplace=True)
      (23): MaxPool2d(kernel_size=2, stride=2, padding=0, dilation=1, ceil_mode=False)
      (24): Conv2d(512, 512, kernel_size=(3, 3), stride=(1, 1), padding=(1, 1))
      (25): ReLU(inplace=True)
      (26): Conv2d(512, 512, kernel_size=(3, 3), stride=(1, 1), padding=(1, 1))
      (27): ReLU(inplace=True)
      (28): Conv2d(512, 512, kernel_size=(3, 3), stride=(1, 1), padding=(1, 1))
      (29): ReLU(inplace=True)
      (30): MaxPool2d(kernel_size=2, stride=2, padding=0, dilation=1, ceil_mode=False)
    )
    (avgpool): AdaptiveAvgPool2d(output_size=(7, 7))
    (classifier): Sequential(
      (0): Linear(in_features=25088, out_features=4096, bias=True)
      (1): ReLU(inplace=True)
      (2): Dropout(p=0.5, inplace=False)
      (3): Linear(in_features=4096, out_features=4096, bias=True)
      (4): ReLU(inplace=True)
      (5): Dropout(p=0.5, inplace=False)
      (6): Linear(in_features=4096, out_features=256, bias=True)
    )
  )
  (last): ModuleDict(
    (FER): Linear(in_features=256, out_features=7, bias=True)
    (AU): Linear(in_features=256, out_features=12, bias=True)
    (AV): Linear(in_features=256, out_features=2, bias=True)
  )
)
2024-02-03 13:27:17,775 INFO:233
2024-02-03 13:27:17,776 INFO:====================== AU =======================
2024-02-03 13:27:17,785 INFO:Incremental class: Old valid output dimension: 0
2024-02-03 13:27:17,786 INFO:Incremental class: New Valid output dimension: 12
2024-02-03 13:27:17,788 INFO:Epoch:0
2024-02-03 13:27:17,789 INFO:Itr		Time		  Data		  Loss		Acc
…
2024-02-11 15:49:36,972 INFO:Validation dataset sample shape for task AU - x: torch.Size([3, 100, 100]), y: torch.Size([12])
2024-02-11 15:49:36,973 INFO:Validation dataset shape for task FER: 400
2024-02-11 15:49:36,974 INFO:Validation dataset sample shape for task FER - x: torch.Size([3, 100, 100]), y: torch.Size([])
2024-02-11 15:49:36,974 INFO:Validation dataset shape for task AV: 56
2024-02-11 15:49:36,975 INFO:Validation dataset sample shape for task AV - x: torch.Size([3, 100, 100]), y: torch.Size([2])
2024-02-11 15:49:36,975 INFO:------------------------------------------------------------
2024-02-11 15:49:36,976 INFO:Task order: ['AU', 'AV', 'FER']
2024-02-11 15:49:37,562 INFO:vgg16_pt(
  (conv_1_1): Conv2d(3, 64, kernel_size=(3, 3), stride=(1, 1), padding=(1, 1))
  (conv_1_2): Conv2d(64, 64, kernel_size=(3, 3), stride=(1, 1), padding=(1, 1))
  (conv_2_1): Conv2d(64, 128, kernel_size=(3, 3), stride=(1, 1), padding=(1, 1))
  (conv_2_2): Conv2d(128, 128, kernel_size=(3, 3), stride=(1, 1), padding=(1, 1))
  (conv_3_1): Conv2d(128, 256, kernel_size=(3, 3), stride=(1, 1), padding=(1, 1))
  (conv_3_2): Conv2d(256, 256, kernel_size=(3, 3), stride=(1, 1), padding=(1, 1))
  (conv_3_3): Conv2d(256, 256, kernel_size=(3, 3), stride=(1, 1), padding=(1, 1))
  (conv_4_1): Conv2d(256, 512, kernel_size=(3, 3), stride=(1, 1), padding=(1, 1))
  (conv_4_2): Conv2d(512, 512, kernel_size=(3, 3), stride=(1, 1), padding=(1, 1))
  (conv_4_3): Conv2d(512, 512, kernel_size=(3, 3), stride=(1, 1), padding=(1, 1))
  (conv_5_1): Conv2d(512, 512, kernel_size=(3, 3), stride=(1, 1), padding=(1, 1))
  (conv_5_2): Conv2d(512, 512, kernel_size=(3, 3), stride=(1, 1), padding=(1, 1))
  (conv_5_3): Conv2d(512, 512, kernel_size=(3, 3), stride=(1, 1), padding=(1, 1))
  (fc6): Linear(in_features=25088, out_features=4096, bias=True)
  (fc7): Linear(in_features=4096, out_features=256, bias=True)
  (last): ModuleDict(
    (FER): Linear(in_features=256, out_features=7, bias=True)
    (AU): Linear(in_features=256, out_features=12, bias=True)
    (AV): Linear(in_features=256, out_features=2, bias=True)
  )
)
2024-02-11 15:49:37,562 INFO:233
2024-02-11 15:49:37,562 INFO:====================== AU =======================
2024-02-11 15:49:37,562 INFO:Incremental class: Old valid output dimension: 0
2024-02-11 15:49:37,563 INFO:Incremental class: New Valid output dimension: 12
2024-02-11 15:49:37,563 INFO:Epoch:0
2024-02-11 15:49:37,563 INFO:Itr		Time		  Data		  Loss		Acc
…
2024-02-28 12:40:52,839 INFO:Training dataset shape for task All: 100
2024-02-28 12:40:52,861 INFO:Training dataset sample shape for task All - x: torch.Size([3, 100, 100]), y: torch.Size([21])
2024-02-28 12:40:52,862 INFO:Validation dataset shape for task All: 25
2024-02-28 12:40:52,870 INFO:Validation dataset sample shape for task All - x: torch.Size([3, 100, 100]), y: torch.Size([21])
2024-02-28 12:40:52,870 INFO:------------------------------------------------------------
2024-02-28 12:40:52,870 INFO:Task order: ['All']
2024-02-28 12:40:52,884 INFO:Net(
  (layer1): Sequential(
    (0): Conv2d(3, 24, kernel_size=(3, 3), stride=(1, 1), padding=(1, 1))
    (1): ReLU()
    (2): BatchNorm2d(24, eps=1e-05, momentum=0.1, affine=True, track_running_stats=True)
    (3): Conv2d(24, 24, kernel_size=(3, 3), stride=(1, 1), padding=(1, 1))
    (4): ReLU()
    (5): BatchNorm2d(24, eps=1e-05, momentum=0.1, affine=True, track_running_stats=True)
    (6): MaxPool2d(kernel_size=(2, 2), stride=(2, 2), padding=0, dilation=1, ceil_mode=False)
    (7): Dropout(p=0.4, inplace=False)
  )
  (layer2): Sequential(
    (0): Conv2d(24, 48, kernel_size=(3, 3), stride=(1, 1), padding=(1, 1))
    (1): ReLU()
    (2): BatchNorm2d(48, eps=1e-05, momentum=0.1, affine=True, track_running_stats=True)
    (3): Conv2d(48, 48, kernel_size=(3, 3), stride=(1, 1), padding=(1, 1))
    (4): ReLU()
    (5): BatchNorm2d(48, eps=1e-05, momentum=0.1, affine=True, track_running_stats=True)
    (6): MaxPool2d(kernel_size=(2, 2), stride=(2, 2), padding=0, dilation=1, ceil_mode=False)
    (7): Dropout(p=0.4, inplace=False)
  )
  (layer3): Sequential(
    (0): Conv2d(48, 96, kernel_size=(3, 3), stride=(1, 1), padding=(1, 1))
    (1): ReLU()
    (2): BatchNorm2d(96, eps=1e-05, momentum=0.1, affine=True, track_running_stats=True)
    (3): Conv2d(96, 96, kernel_size=(3, 3), stride=(1, 1), padding=(1, 1))
    (4): ReLU()
    (5): BatchNorm2d(96, eps=1e-05, momentum=0.1, affine=True, track_running_stats=True)
    (6): MaxPool2d(kernel_size=(2, 2), stride=(2, 2), padding=0, dilation=1, ceil_mode=False)
    (7): Dropout(p=0.4, inplace=False)
  )
  (layer4): Sequential(
    (0): Conv2d(96, 192, kernel_size=(3, 3), stride=(1, 1), padding=(1, 1))
    (1): ReLU()
    (2): BatchNorm2d(192, eps=1e-05, momentum=0.1, affine=True, track_running_stats=True)
    (3): Conv2d(192, 192, kernel_size=(3, 3), stride=(1, 1), padding=(1, 1))
    (4): ReLU()
    (5): BatchNorm2d(192, eps=1e-05, momentum=0.1, affine=True, track_running_stats=True)
    (6): MaxPool2d(kernel_size=(2, 2), stride=(2, 2), padding=0, dilation=1, ceil_mode=False)
    (7): Dropout(p=0.4, inplace=False)
  )
  (flat): Flatten(start_dim=1, end_dim=-1)
  (fc1): Linear(in_features=6912, out_features=192, bias=True)
  (fc2): Linear(in_features=192, out_features=96, bias=True)
  (last2): Linear(in_features=96, out_features=48, bias=True)
  (last): ModuleDict(
    (All): Linear(in_features=48, out_features=21, bias=True)
  )
)
2024-02-28 12:40:52,884 INFO:100
2024-02-28 12:40:52,884 INFO:====================== All =======================
2024-02-28 12:40:52,885 INFO:Epoch:0
2024-02-28 12:42:21,793 INFO:got args, entered main
2024-02-28 12:42:22,711 INFO:Loaded BP4D for AU
2024-02-28 12:42:22,816 INFO:Loaded RAFDB for FER
2024-02-28 12:42:25,726 INFO:Loaded Affwild2 for AV
…
2024-02-28 20:27:34,322 INFO:Training dataset shape for task All: 851
2024-02-28 20:27:34,338 INFO:Training dataset sample shape for task All - x: torch.Size([3, 100, 100]), y: torch.Size([15])
2024-02-28 20:27:34,339 INFO:Validation dataset shape for task All: 213
2024-02-28 20:27:34,340 INFO:Validation dataset sample shape for task All - x: torch.Size([3, 100, 100]), y: torch.Size([15])
2024-02-28 20:27:34,340 INFO:------------------------------------------------------------
2024-02-28 20:27:34,340 INFO:Task order: ['All']
2024-02-28 20:27:34,357 INFO:Net(
  (layer1): Sequential(
    (0): Conv2d(3, 24, kernel_size=(3, 3), stride=(1, 1), padding=(1, 1))
    (1): ReLU()
    (2): BatchNorm2d(24, eps=1e-05, momentum=0.1, affine=True, track_running_stats=True)
    (3): Conv2d(24, 24, kernel_size=(3, 3), stride=(1, 1), padding=(1, 1))
    (4): ReLU()
    (5): BatchNorm2d(24, eps=1e-05, momentum=0.1, affine=True, track_running_stats=True)
    (6): MaxPool2d(kernel_size=(2, 2), stride=(2, 2), padding=0, dilation=1, ceil_mode=False)
    (7): Dropout(p=0.4, inplace=False)
  )
  (layer2): Sequential(
    (0): Conv2d(24, 48, kernel_size=(3, 3), stride=(1, 1), padding=(1, 1))
    (1): ReLU()
    (2): BatchNorm2d(48, eps=1e-05, momentum=0.1, affine=True, track_running_stats=True)
    (3): Conv2d(48, 48, kernel_size=(3, 3), stride=(1, 1), padding=(1, 1))
    (4): ReLU()
    (5): BatchNorm2d(48, eps=1e-05, momentum=0.1, affine=True, track_running_stats=True)
    (6): MaxPool2d(kernel_size=(2, 2), stride=(2, 2), padding=0, dilation=1, ceil_mode=False)
    (7): Dropout(p=0.4, inplace=False)
  )
  (layer3): Sequential(
    (0): Conv2d(48, 96, kernel_size=(3, 3), stride=(1, 1), padding=(1, 1))
    (1): ReLU()
    (2): BatchNorm2d(96, eps=1e-05, momentum=0.1, affine=True, track_running_stats=True)
    (3): Conv2d(96, 96, kernel_size=(3, 3), stride=(1, 1), padding=(1, 1))
    (4): ReLU()
    (5): BatchNorm2d(96, eps=1e-05, momentum=0.1, affine=True, track_running_stats=True)
    (6): MaxPool2d(kernel_size=(2, 2), stride=(2, 2), padding=0, dilation=1, ceil_mode=False)
    (7): Dropout(p=0.4, inplace=False)
  )
  (layer4): Sequential(
    (0): Conv2d(96, 192, kernel_size=(3, 3), stride=(1, 1), padding=(1, 1))
    (1): ReLU()
    (2): BatchNorm2d(192, eps=1e-05, momentum=0.1, affine=True, track_running_stats=True)
    (3): Conv2d(192, 192, kernel_size=(3, 3), stride=(1, 1), padding=(1, 1))
    (4): ReLU()
    (5): BatchNorm2d(192, eps=1e-05, momentum=0.1, affine=True, track_running_stats=True)
    (6): MaxPool2d(kernel_size=(2, 2), stride=(2, 2), padding=0, dilation=1, ceil_mode=False)
    (7): Dropout(p=0.4, inplace=False)
  )
  (flat): Flatten(start_dim=1, end_dim=-1)
  (fc1): Linear(in_features=6912, out_features=192, bias=True)
  (fc2): Linear(in_features=192, out_features=96, bias=True)
  (last2): Linear(in_features=96, out_features=48, bias=True)
  (last): ModuleDict(
    (All): Linear(in_features=48, out_features=15, bias=True)
  )
)
2024-02-28 20:27:34,357 INFO:851
2024-02-28 20:27:34,357 INFO:====================== All =======================
2024-02-28 20:27:34,358 INFO:Epoch:0
2024-02-28 20:27:34,359 INFO:Itr		 Time		 Data		 Loss		 CCC		 ACC		 F1
2024-02-28 20:27:35,891 INFO:[0/14]	1.5317 (1.5317)	0.0608 (0.0608)	0.293 (0.293)	0.00 (0.00)	96.88 (96.88)	0.08 (0.08)
2024-02-28 20:27:59,579 INFO:got args, entered main
…
2024-02-29 17:11:00,296 INFO:got args, entered main
2024-02-29 17:11:04,286 INFO:Loaded AffWild2 for ALLDATA
2024-02-29 17:11:04,287 INFO:------------------------------------------------------------
2024-02-29 17:11:04,287 INFO:Training dataset shape for task FER: 851
2024-02-29 17:11:20,893 INFO:got args, entered main
2024-02-29 17:11:25,462 INFO:Loaded AffWild2 for ALLDATA
2024-02-29 17:11:25,462 INFO:------------------------------------------------------------
2024-02-29 17:11:25,462 INFO:Task order: ['AU', 'AV', 'FER']
2024-02-29 17:11:25,476 INFO:Net(
  (layer1): Sequential(
    (0): Conv2d(3, 24, kernel_size=(3, 3), stride=(1, 1), padding=(1, 1))
    (1): ReLU()
    (2): BatchNorm2d(24, eps=1e-05, momentum=0.1, affine=True, track_running_stats=True)
    (3): Conv2d(24, 24, kernel_size=(3, 3), stride=(1, 1), padding=(1, 1))
    (4): ReLU()
    (5): BatchNorm2d(24, eps=1e-05, momentum=0.1, affine=True, track_running_stats=True)
    (6): MaxPool2d(kernel_size=(2, 2), stride=(2, 2), padding=0, dilation=1, ceil_mode=False)
    (7): Dropout(p=0.4, inplace=False)
  )
  (layer2): Sequential(
    (0): Conv2d(24, 48, kernel_size=(3, 3), stride=(1, 1), padding=(1, 1))
    (1): ReLU()
    (2): BatchNorm2d(48, eps=1e-05, momentum=0.1, affine=True, track_running_stats=True)
    (3): Conv2d(48, 48, kernel_size=(3, 3), stride=(1, 1), padding=(1, 1))
    (4): ReLU()
    (5): BatchNorm2d(48, eps=1e-05, momentum=0.1, affine=True, track_running_stats=True)
    (6): MaxPool2d(kernel_size=(2, 2), stride=(2, 2), padding=0, dilation=1, ceil_mode=False)
    (7): Dropout(p=0.4, inplace=False)
  )
  (layer3): Sequential(
    (0): Conv2d(48, 96, kernel_size=(3, 3), stride=(1, 1), padding=(1, 1))
    (1): ReLU()
    (2): BatchNorm2d(96, eps=1e-05, momentum=0.1, affine=True, track_running_stats=True)
    (3): Conv2d(96, 96, kernel_size=(3, 3), stride=(1, 1), padding=(1, 1))
    (4): ReLU()
    (5): BatchNorm2d(96, eps=1e-05, momentum=0.1, affine=True, track_running_stats=True)
    (6): MaxPool2d(kernel_size=(2, 2), stride=(2, 2), padding=0, dilation=1, ceil_mode=False)
    (7): Dropout(p=0.4, inplace=False)
  )
  (layer4): Sequential(
    (0): Conv2d(96, 192, kernel_size=(3, 3), stride=(1, 1), padding=(1, 1))
    (1): ReLU()
    (2): BatchNorm2d(192, eps=1e-05, momentum=0.1, affine=True, track_running_stats=True)
    (3): Conv2d(192, 192, kernel_size=(3, 3), stride=(1, 1), padding=(1, 1))
    (4): ReLU()
    (5): BatchNorm2d(192, eps=1e-05, momentum=0.1, affine=True, track_running_stats=True)
    (6): MaxPool2d(kernel_size=(2, 2), stride=(2, 2), padding=0, dilation=1, ceil_mode=False)
    (7): Dropout(p=0.4, inplace=False)
  )
  (flat): Flatten(start_dim=1, end_dim=-1)
  (fc1): Linear(in_features=6912, out_features=192, bias=True)
  (fc2): Linear(in_features=192, out_features=96, bias=True)
  (last2): Linear(in_features=96, out_features=48, bias=True)
  (last): ModuleDict(
    (FER): Linear(in_features=48, out_features=7, bias=True)
    (AU): Linear(in_features=48, out_features=12, bias=True)
    (AV): Linear(in_features=48, out_features=2, bias=True)
  )
)
2024-02-29 17:11:25,476 INFO:851
2024-02-29 17:11:25,477 INFO:====================== AU =======================
2024-02-29 17:11:25,478 INFO:Epoch:0
2024-02-29 17:11:25,478 INFO:Itr		Time		  Data		  Loss		F1
2024-02-29 17:26:35,297 INFO:got args, entered main
2024-02-29 17:26:40,391 INFO:Loaded AffWild2 for ALLDATA
2024-02-29 17:26:40,392 INFO:------------------------------------------------------------
2024-02-29 17:26:40,392 INFO:Task order: ['AU', 'AV', 'FER']
2024-02-29 17:26:40,409 INFO:Net(
  (layer1): Sequential(
    (0): Conv2d(3, 24, kernel_size=(3, 3), stride=(1, 1), padding=(1, 1))
    (1): ReLU()
    (2): BatchNorm2d(24, eps=1e-05, momentum=0.1, affine=True, track_running_stats=True)
    (3): Conv2d(24, 24, kernel_size=(3, 3), stride=(1, 1), padding=(1, 1))
    (4): ReLU()
    (5): BatchNorm2d(24, eps=1e-05, momentum=0.1, affine=True, track_running_stats=True)
    (6): MaxPool2d(kernel_size=(2, 2), stride=(2, 2), padding=0, dilation=1, ceil_mode=False)
    (7): Dropout(p=0.4, inplace=False)
  )
  (layer2): Sequential(
    (0): Conv2d(24, 48, kernel_size=(3, 3), stride=(1, 1), padding=(1, 1))
    (1): ReLU()
    (2): BatchNorm2d(48, eps=1e-05, momentum=0.1, affine=True, track_running_stats=True)
    (3): Conv2d(48, 48, kernel_size=(3, 3), stride=(1, 1), padding=(1, 1))
    (4): ReLU()
    (5): BatchNorm2d(48, eps=1e-05, momentum=0.1, affine=True, track_running_stats=True)
    (6): MaxPool2d(kernel_size=(2, 2), stride=(2, 2), padding=0, dilation=1, ceil_mode=False)
    (7): Dropout(p=0.4, inplace=False)
  )
  (layer3): Sequential(
    (0): Conv2d(48, 96, kernel_size=(3, 3), stride=(1, 1), padding=(1, 1))
    (1): ReLU()
    (2): BatchNorm2d(96, eps=1e-05, momentum=0.1, affine=True, track_running_stats=True)
    (3): Conv2d(96, 96, kernel_size=(3, 3), stride=(1, 1), padding=(1, 1))
    (4): ReLU()
    (5): BatchNorm2d(96, eps=1e-05, momentum=0.1, affine=True, track_running_stats=True)
    (6): MaxPool2d(kernel_size=(2, 2), stride=(2, 2), padding=0, dilation=1, ceil_mode=False)
    (7): Dropout(p=0.4, inplace=False)
  )
  (layer4): Sequential(
    (0): Conv2d(96, 192, kernel_size=(3, 3), stride=(1, 1), padding=(1, 1))
    (1): ReLU()
    (2): BatchNorm2d(192, eps=1e-05, momentum=0.1, affine=True, track_running_stats=True)
    (3): Conv2d(192, 192, kernel_size=(3, 3), stride=(1, 1), padding=(1, 1))
    (4): ReLU()
    (5): BatchNorm2d(192, eps=1e-05, momentum=0.1, affine=True, track_running_stats=True)
    (6): MaxPool2d(kernel_size=(2, 2), stride=(2, 2), padding=0, dilation=1, ceil_mode=False)
    (7): Dropout(p=0.4, inplace=False)
  )
  (flat): Flatten(start_dim=1, end_dim=-1)
  (fc1): Linear(in_features=6912, out_features=192, bias=True)
  (fc2): Linear(in_features=192, out_features=96, bias=True)
  (last2): Linear(in_features=96, out_features=48, bias=True)
  (last): ModuleDict(
    (FER): Linear(in_features=48, out_features=7, bias=True)
    (AU): Linear(in_features=48, out_features=12, bias=True)
    (AV): Linear(in_features=48, out_features=2, bias=True)
  )
)
2024-02-29 17:26:40,410 INFO:851
2024-02-29 17:26:40,410 INFO:====================== AU =======================
2024-02-29 17:26:40,411 INFO:Epoch:0
2024-02-29 17:26:40,412 INFO:Itr		Time		  Data		  Loss		F1
2024-03-03 23:05:57,224 INFO:got args, entered main
2024-03-03 23:06:04,419 INFO:Loaded AffWild2 for ALLDATA
2024-03-03 23:06:04,419 INFO:------------------------------------------------------------
2024-03-03 23:06:04,420 INFO:Task order: ['AU', 'AV', 'FER']
2024-03-03 23:06:05,252 INFO:Net(
  (layer1): Sequential(
    (0): Conv2d(3, 24, kernel_size=(3, 3), stride=(1, 1), padding=(1, 1))
    (1): ReLU()
    (2): BatchNorm2d(24, eps=1e-05, momentum=0.1, affine=True, track_running_stats=True)
    (3): Conv2d(24, 24, kernel_size=(3, 3), stride=(1, 1), padding=(1, 1))
    (4): ReLU()
    (5): BatchNorm2d(24, eps=1e-05, momentum=0.1, affine=True, track_running_stats=True)
    (6): MaxPool2d(kernel_size=(2, 2), stride=(2, 2), padding=0, dilation=1, ceil_mode=False)
    (7): Dropout(p=0.4, inplace=False)
  )
  (layer2): Sequential(
    (0): Conv2d(24, 48, kernel_size=(3, 3), stride=(1, 1), padding=(1, 1))
    (1): ReLU()
    (2): BatchNorm2d(48, eps=1e-05, momentum=0.1, affine=True, track_running_stats=True)
    (3): Conv2d(48, 48, kernel_size=(3, 3), stride=(1, 1), padding=(1, 1))
    (4): ReLU()
    (5): BatchNorm2d(48, eps=1e-05, momentum=0.1, affine=True, track_running_stats=True)
    (6): MaxPool2d(kernel_size=(2, 2), stride=(2, 2), padding=0, dilation=1, ceil_mode=False)
    (7): Dropout(p=0.4, inplace=False)
  )
  (layer3): Sequential(
    (0): Conv2d(48, 96, kernel_size=(3, 3), stride=(1, 1), padding=(1, 1))
    (1): ReLU()
    (2): BatchNorm2d(96, eps=1e-05, momentum=0.1, affine=True, track_running_stats=True)
    (3): Conv2d(96, 96, kernel_size=(3, 3), stride=(1, 1), padding=(1, 1))
    (4): ReLU()
    (5): BatchNorm2d(96, eps=1e-05, momentum=0.1, affine=True, track_running_stats=True)
    (6): MaxPool2d(kernel_size=(2, 2), stride=(2, 2), padding=0, dilation=1, ceil_mode=False)
    (7): Dropout(p=0.4, inplace=False)
  )
  (layer4): Sequential(
    (0): Conv2d(96, 192, kernel_size=(3, 3), stride=(1, 1), padding=(1, 1))
    (1): ReLU()
    (2): BatchNorm2d(192, eps=1e-05, momentum=0.1, affine=True, track_running_stats=True)
    (3): Conv2d(192, 192, kernel_size=(3, 3), stride=(1, 1), padding=(1, 1))
    (4): ReLU()
    (5): BatchNorm2d(192, eps=1e-05, momentum=0.1, affine=True, track_running_stats=True)
    (6): MaxPool2d(kernel_size=(2, 2), stride=(2, 2), padding=0, dilation=1, ceil_mode=False)
    (7): Dropout(p=0.4, inplace=False)
  )
  (flat): Flatten(start_dim=1, end_dim=-1)
  (fc1): Linear(in_features=6912, out_features=192, bias=True)
  (fc2): Linear(in_features=192, out_features=96, bias=True)
  (last2): Linear(in_features=96, out_features=48, bias=True)
  (last): ModuleDict(
    (FER): Linear(in_features=48, out_features=7, bias=True)
    (AU): Linear(in_features=48, out_features=12, bias=True)
    (AV): Linear(in_features=48, out_features=2, bias=True)
  )
)
2024-03-03 23:06:05,252 INFO:851
2024-03-03 23:06:05,252 INFO:====================== AU =======================
2024-03-03 23:06:05,253 INFO:Epoch:0
2024-03-03 23:06:05,254 INFO:Itr		Time		  Data		  Loss		F1
2024-03-03 23:09:37,626 INFO:got args, entered main
2024-03-03 23:09:42,446 INFO:Loaded AffWild2 for ALLDATA
2024-03-03 23:09:42,446 INFO:------------------------------------------------------------
2024-03-03 23:09:42,446 INFO:Task order: ['AU', 'AV', 'FER']
2024-03-03 23:09:42,464 INFO:Net(
  (layer1): Sequential(
    (0): Conv2d(3, 24, kernel_size=(3, 3), stride=(1, 1), padding=(1, 1))
    (1): ReLU()
    (2): BatchNorm2d(24, eps=1e-05, momentum=0.1, affine=True, track_running_stats=True)
    (3): Conv2d(24, 24, kernel_size=(3, 3), stride=(1, 1), padding=(1, 1))
    (4): ReLU()
    (5): BatchNorm2d(24, eps=1e-05, momentum=0.1, affine=True, track_running_stats=True)
    (6): MaxPool2d(kernel_size=(2, 2), stride=(2, 2), padding=0, dilation=1, ceil_mode=False)
    (7): Dropout(p=0.4, inplace=False)
  )
  (layer2): Sequential(
    (0): Conv2d(24, 48, kernel_size=(3, 3), stride=(1, 1), padding=(1, 1))
    (1): ReLU()
    (2): BatchNorm2d(48, eps=1e-05, momentum=0.1, affine=True, track_running_stats=True)
    (3): Conv2d(48, 48, kernel_size=(3, 3), stride=(1, 1), padding=(1, 1))
    (4): ReLU()
    (5): BatchNorm2d(48, eps=1e-05, momentum=0.1, affine=True, track_running_stats=True)
    (6): MaxPool2d(kernel_size=(2, 2), stride=(2, 2), padding=0, dilation=1, ceil_mode=False)
    (7): Dropout(p=0.4, inplace=False)
  )
  (layer3): Sequential(
    (0): Conv2d(48, 96, kernel_size=(3, 3), stride=(1, 1), padding=(1, 1))
    (1): ReLU()
    (2): BatchNorm2d(96, eps=1e-05, momentum=0.1, affine=True, track_running_stats=True)
    (3): Conv2d(96, 96, kernel_size=(3, 3), stride=(1, 1), padding=(1, 1))
    (4): ReLU()
    (5): BatchNorm2d(96, eps=1e-05, momentum=0.1, affine=True, track_running_stats=True)
    (6): MaxPool2d(kernel_size=(2, 2), stride=(2, 2), padding=0, dilation=1, ceil_mode=False)
    (7): Dropout(p=0.4, inplace=False)
  )
  (layer4): Sequential(
    (0): Conv2d(96, 192, kernel_size=(3, 3), stride=(1, 1), padding=(1, 1))
    (1): ReLU()
    (2): BatchNorm2d(192, eps=1e-05, momentum=0.1, affine=True, track_running_stats=True)
    (3): Conv2d(192, 192, kernel_size=(3, 3), stride=(1, 1), padding=(1, 1))
    (4): ReLU()
    (5): BatchNorm2d(192, eps=1e-05, momentum=0.1, affine=True, track_running_stats=True)
    (6): MaxPool2d(kernel_size=(2, 2), stride=(2, 2), padding=0, dilation=1, ceil_mode=False)
    (7): Dropout(p=0.4, inplace=False)
  )
  (flat): Flatten(start_dim=1, end_dim=-1)
  (fc1): Linear(in_features=6912, out_features=192, bias=True)
  (fc2): Linear(in_features=192, out_features=96, bias=True)
  (last2): Linear(in_features=96, out_features=48, bias=True)
  (last): ModuleDict(
    (FER): Linear(in_features=48, out_features=7, bias=True)
    (AU): Linear(in_features=48, out_features=12, bias=True)
    (AV): Linear(in_features=48, out_features=2, bias=True)
  )
)
2024-03-03 23:09:42,464 INFO:851
2024-03-03 23:09:42,465 INFO:====================== AU =======================
2024-03-03 23:09:42,465 INFO:Incremental class: Old valid output dimension: 0
2024-03-03 23:09:42,465 INFO:Incremental class: New Valid output dimension: 12
2024-03-03 23:09:42,466 INFO:Epoch:0
2024-03-03 23:09:42,467 INFO:Itr		Time		  Data		  Loss		F1
2024-03-03 23:09:58,579 INFO:got args, entered main
2024-03-03 23:10:04,280 INFO:Loaded AffWild2 for ALLDATA
2024-03-03 23:10:04,280 INFO:------------------------------------------------------------
2024-03-03 23:10:04,280 INFO:Task order: ['AU', 'AV', 'FER']
2024-03-03 23:10:04,299 INFO:Net(
  (layer1): Sequential(
    (0): Conv2d(3, 24, kernel_size=(3, 3), stride=(1, 1), padding=(1, 1))
    (1): ReLU()
    (2): BatchNorm2d(24, eps=1e-05, momentum=0.1, affine=True, track_running_stats=True)
    (3): Conv2d(24, 24, kernel_size=(3, 3), stride=(1, 1), padding=(1, 1))
    (4): ReLU()
    (5): BatchNorm2d(24, eps=1e-05, momentum=0.1, affine=True, track_running_stats=True)
    (6): MaxPool2d(kernel_size=(2, 2), stride=(2, 2), padding=0, dilation=1, ceil_mode=False)
    (7): Dropout(p=0.4, inplace=False)
  )
  (layer2): Sequential(
    (0): Conv2d(24, 48, kernel_size=(3, 3), stride=(1, 1), padding=(1, 1))
    (1): ReLU()
    (2): BatchNorm2d(48, eps=1e-05, momentum=0.1, affine=True, track_running_stats=True)
    (3): Conv2d(48, 48, kernel_size=(3, 3), stride=(1, 1), padding=(1, 1))
    (4): ReLU()
    (5): BatchNorm2d(48, eps=1e-05, momentum=0.1, affine=True, track_running_stats=True)
    (6): MaxPool2d(kernel_size=(2, 2), stride=(2, 2), padding=0, dilation=1, ceil_mode=False)
    (7): Dropout(p=0.4, inplace=False)
  )
  (layer3): Sequential(
    (0): Conv2d(48, 96, kernel_size=(3, 3), stride=(1, 1), padding=(1, 1))
    (1): ReLU()
    (2): BatchNorm2d(96, eps=1e-05, momentum=0.1, affine=True, track_running_stats=True)
    (3): Conv2d(96, 96, kernel_size=(3, 3), stride=(1, 1), padding=(1, 1))
    (4): ReLU()
    (5): BatchNorm2d(96, eps=1e-05, momentum=0.1, affine=True, track_running_stats=True)
    (6): MaxPool2d(kernel_size=(2, 2), stride=(2, 2), padding=0, dilation=1, ceil_mode=False)
    (7): Dropout(p=0.4, inplace=False)
  )
  (layer4): Sequential(
    (0): Conv2d(96, 192, kernel_size=(3, 3), stride=(1, 1), padding=(1, 1))
    (1): ReLU()
    (2): BatchNorm2d(192, eps=1e-05, momentum=0.1, affine=True, track_running_stats=True)
    (3): Conv2d(192, 192, kernel_size=(3, 3), stride=(1, 1), padding=(1, 1))
    (4): ReLU()
    (5): BatchNorm2d(192, eps=1e-05, momentum=0.1, affine=True, track_running_stats=True)
    (6): MaxPool2d(kernel_size=(2, 2), stride=(2, 2), padding=0, dilation=1, ceil_mode=False)
    (7): Dropout(p=0.4, inplace=False)
  )
  (flat): Flatten(start_dim=1, end_dim=-1)
  (fc1): Linear(in_features=6912, out_features=192, bias=True)
  (fc2): Linear(in_features=192, out_features=96, bias=True)
  (last2): Linear(in_features=96, out_features=48, bias=True)
  (last): ModuleDict(
    (FER): Linear(in_features=48, out_features=7, bias=True)
    (AU): Linear(in_features=48, out_features=12, bias=True)
    (AV): Linear(in_features=48, out_features=2, bias=True)
  )
)
2024-03-03 23:10:04,300 INFO:851
2024-03-03 23:10:04,300 INFO:====================== AU =======================
2024-03-03 23:10:04,301 INFO:Incremental class: Old valid output dimension: 0
2024-03-03 23:10:04,301 INFO:Incremental class: New Valid output dimension: 12
2024-03-03 23:10:04,302 INFO:Epoch:0
2024-03-03 23:10:04,303 INFO:Itr		Time		  Data		  Loss		F1
2024-03-04 00:01:00,370 INFO:got args, entered main
2024-03-04 00:01:07,724 INFO:Loaded AffWild2 for ALLDATA
2024-03-04 00:01:07,724 INFO:------------------------------------------------------------
2024-03-04 00:01:07,725 INFO:Task order: ['AU', 'AV', 'FER']
2024-03-04 00:01:07,798 INFO:Net(
  (layer1): Sequential(
    (0): Conv2d(3, 24, kernel_size=(3, 3), stride=(1, 1), padding=(1, 1))
    (1): ReLU()
    (2): BatchNorm2d(24, eps=1e-05, momentum=0.1, affine=True, track_running_stats=True)
    (3): Conv2d(24, 24, kernel_size=(3, 3), stride=(1, 1), padding=(1, 1))
    (4): ReLU()
    (5): BatchNorm2d(24, eps=1e-05, momentum=0.1, affine=True, track_running_stats=True)
    (6): MaxPool2d(kernel_size=(2, 2), stride=(2, 2), padding=0, dilation=1, ceil_mode=False)
    (7): Dropout(p=0.4, inplace=False)
  )
  (layer2): Sequential(
    (0): Conv2d(24, 48, kernel_size=(3, 3), stride=(1, 1), padding=(1, 1))
    (1): ReLU()
    (2): BatchNorm2d(48, eps=1e-05, momentum=0.1, affine=True, track_running_stats=True)
    (3): Conv2d(48, 48, kernel_size=(3, 3), stride=(1, 1), padding=(1, 1))
    (4): ReLU()
    (5): BatchNorm2d(48, eps=1e-05, momentum=0.1, affine=True, track_running_stats=True)
    (6): MaxPool2d(kernel_size=(2, 2), stride=(2, 2), padding=0, dilation=1, ceil_mode=False)
    (7): Dropout(p=0.4, inplace=False)
  )
  (layer3): Sequential(
    (0): Conv2d(48, 96, kernel_size=(3, 3), stride=(1, 1), padding=(1, 1))
    (1): ReLU()
    (2): BatchNorm2d(96, eps=1e-05, momentum=0.1, affine=True, track_running_stats=True)
    (3): Conv2d(96, 96, kernel_size=(3, 3), stride=(1, 1), padding=(1, 1))
    (4): ReLU()
    (5): BatchNorm2d(96, eps=1e-05, momentum=0.1, affine=True, track_running_stats=True)
    (6): MaxPool2d(kernel_size=(2, 2), stride=(2, 2), padding=0, dilation=1, ceil_mode=False)
    (7): Dropout(p=0.4, inplace=False)
  )
  (layer4): Sequential(
    (0): Conv2d(96, 192, kernel_size=(3, 3), stride=(1, 1), padding=(1, 1))
    (1): ReLU()
    (2): BatchNorm2d(192, eps=1e-05, momentum=0.1, affine=True, track_running_stats=True)
    (3): Conv2d(192, 192, kernel_size=(3, 3), stride=(1, 1), padding=(1, 1))
    (4): ReLU()
    (5): BatchNorm2d(192, eps=1e-05, momentum=0.1, affine=True, track_running_stats=True)
    (6): MaxPool2d(kernel_size=(2, 2), stride=(2, 2), padding=0, dilation=1, ceil_mode=False)
    (7): Dropout(p=0.4, inplace=False)
  )
  (flat): Flatten(start_dim=1, end_dim=-1)
  (fc1): Linear(in_features=6912, out_features=192, bias=True)
  (fc2): Linear(in_features=192, out_features=96, bias=True)
  (last2): Linear(in_features=96, out_features=48, bias=True)
  (last): ModuleDict(
    (FER): Linear(in_features=48, out_features=7, bias=True)
    (AU): Linear(in_features=48, out_features=12, bias=True)
    (AV): Linear(in_features=48, out_features=2, bias=True)
  )
)
2024-03-04 00:01:07,800 INFO:851
2024-03-04 00:01:07,800 INFO:====================== AU =======================
2024-03-04 00:01:07,801 INFO:Incremental class: Old valid output dimension: 0
2024-03-04 00:01:07,802 INFO:Incremental class: New Valid output dimension: 12
2024-03-04 00:01:07,803 INFO:Epoch:0
2024-03-04 00:01:07,803 INFO:Itr		Time		  Data		  Loss		F1
2024-03-04 00:02:13,567 INFO:got args, entered main
2024-03-04 00:07:22,619 INFO:got args, entered main
2024-03-04 00:15:57,031 INFO:got args, entered main
2024-03-04 00:16:09,418 INFO:got args, entered main
2024-03-04 00:16:14,890 INFO:Loaded AffWild2 for ALLDATA
2024-03-04 00:16:14,890 INFO:------------------------------------------------------------
2024-03-04 00:16:14,890 INFO:Task order: ['AU', 'AV', 'FER']
2024-03-04 00:16:14,937 INFO:Net(
  (layer1): Sequential(
    (0): Conv2d(3, 24, kernel_size=(3, 3), stride=(1, 1), padding=(1, 1))
    (1): ReLU()
    (2): BatchNorm2d(24, eps=1e-05, momentum=0.1, affine=True, track_running_stats=True)
    (3): Conv2d(24, 24, kernel_size=(3, 3), stride=(1, 1), padding=(1, 1))
    (4): ReLU()
    (5): BatchNorm2d(24, eps=1e-05, momentum=0.1, affine=True, track_running_stats=True)
    (6): MaxPool2d(kernel_size=(2, 2), stride=(2, 2), padding=0, dilation=1, ceil_mode=False)
    (7): Dropout(p=0.4, inplace=False)
  )
  (layer2): Sequential(
    (0): Conv2d(24, 48, kernel_size=(3, 3), stride=(1, 1), padding=(1, 1))
    (1): ReLU()
    (2): BatchNorm2d(48, eps=1e-05, momentum=0.1, affine=True, track_running_stats=True)
    (3): Conv2d(48, 48, kernel_size=(3, 3), stride=(1, 1), padding=(1, 1))
    (4): ReLU()
    (5): BatchNorm2d(48, eps=1e-05, momentum=0.1, affine=True, track_running_stats=True)
    (6): MaxPool2d(kernel_size=(2, 2), stride=(2, 2), padding=0, dilation=1, ceil_mode=False)
    (7): Dropout(p=0.4, inplace=False)
  )
  (layer3): Sequential(
    (0): Conv2d(48, 96, kernel_size=(3, 3), stride=(1, 1), padding=(1, 1))
    (1): ReLU()
    (2): BatchNorm2d(96, eps=1e-05, momentum=0.1, affine=True, track_running_stats=True)
    (3): Conv2d(96, 96, kernel_size=(3, 3), stride=(1, 1), padding=(1, 1))
    (4): ReLU()
    (5): BatchNorm2d(96, eps=1e-05, momentum=0.1, affine=True, track_running_stats=True)
    (6): MaxPool2d(kernel_size=(2, 2), stride=(2, 2), padding=0, dilation=1, ceil_mode=False)
    (7): Dropout(p=0.4, inplace=False)
  )
  (layer4): Sequential(
    (0): Conv2d(96, 192, kernel_size=(3, 3), stride=(1, 1), padding=(1, 1))
    (1): ReLU()
    (2): BatchNorm2d(192, eps=1e-05, momentum=0.1, affine=True, track_running_stats=True)
    (3): Conv2d(192, 192, kernel_size=(3, 3), stride=(1, 1), padding=(1, 1))
    (4): ReLU()
    (5): BatchNorm2d(192, eps=1e-05, momentum=0.1, affine=True, track_running_stats=True)
    (6): MaxPool2d(kernel_size=(2, 2), stride=(2, 2), padding=0, dilation=1, ceil_mode=False)
    (7): Dropout(p=0.4, inplace=False)
  )
  (flat): Flatten(start_dim=1, end_dim=-1)
  (fc1): Linear(in_features=6912, out_features=192, bias=True)
  (fc2): Linear(in_features=192, out_features=96, bias=True)
  (last2): Linear(in_features=96, out_features=48, bias=True)
  (last): ModuleDict(
    (FER): Linear(in_features=48, out_features=7, bias=True)
    (AU): Linear(in_features=48, out_features=12, bias=True)
    (AV): Linear(in_features=48, out_features=2, bias=True)
  )
)
2024-03-04 00:16:14,937 INFO:2
2024-03-04 00:16:14,938 INFO:====================== AU =======================
2024-03-04 00:16:14,938 INFO:Incremental class: Old valid output dimension: 0
2024-03-04 00:16:14,938 INFO:Incremental class: New Valid output dimension: 12
2024-03-04 00:16:14,938 INFO:Epoch:0
2024-03-04 00:16:14,939 INFO:Itr		Time		  Data		  Loss		F1
2024-03-04 00:17:27,399 INFO:got args, entered main
2024-03-04 00:17:32,947 INFO:Loaded AffWild2 for ALLDATA
2024-03-04 00:17:32,947 INFO:------------------------------------------------------------
2024-03-04 00:17:32,948 INFO:Task order: ['AU', 'AV', 'FER']
2024-03-04 00:17:32,965 INFO:Net(
  (layer1): Sequential(
    (0): Conv2d(3, 24, kernel_size=(3, 3), stride=(1, 1), padding=(1, 1))
    (1): ReLU()
    (2): BatchNorm2d(24, eps=1e-05, momentum=0.1, affine=True, track_running_stats=True)
    (3): Conv2d(24, 24, kernel_size=(3, 3), stride=(1, 1), padding=(1, 1))
    (4): ReLU()
    (5): BatchNorm2d(24, eps=1e-05, momentum=0.1, affine=True, track_running_stats=True)
    (6): MaxPool2d(kernel_size=(2, 2), stride=(2, 2), padding=0, dilation=1, ceil_mode=False)
    (7): Dropout(p=0.4, inplace=False)
  )
  (layer2): Sequential(
    (0): Conv2d(24, 48, kernel_size=(3, 3), stride=(1, 1), padding=(1, 1))
    (1): ReLU()
    (2): BatchNorm2d(48, eps=1e-05, momentum=0.1, affine=True, track_running_stats=True)
    (3): Conv2d(48, 48, kernel_size=(3, 3), stride=(1, 1), padding=(1, 1))
    (4): ReLU()
    (5): BatchNorm2d(48, eps=1e-05, momentum=0.1, affine=True, track_running_stats=True)
    (6): MaxPool2d(kernel_size=(2, 2), stride=(2, 2), padding=0, dilation=1, ceil_mode=False)
    (7): Dropout(p=0.4, inplace=False)
  )
  (layer3): Sequential(
    (0): Conv2d(48, 96, kernel_size=(3, 3), stride=(1, 1), padding=(1, 1))
    (1): ReLU()
    (2): BatchNorm2d(96, eps=1e-05, momentum=0.1, affine=True, track_running_stats=True)
    (3): Conv2d(96, 96, kernel_size=(3, 3), stride=(1, 1), padding=(1, 1))
    (4): ReLU()
    (5): BatchNorm2d(96, eps=1e-05, momentum=0.1, affine=True, track_running_stats=True)
    (6): MaxPool2d(kernel_size=(2, 2), stride=(2, 2), padding=0, dilation=1, ceil_mode=False)
    (7): Dropout(p=0.4, inplace=False)
  )
  (layer4): Sequential(
    (0): Conv2d(96, 192, kernel_size=(3, 3), stride=(1, 1), padding=(1, 1))
    (1): ReLU()
    (2): BatchNorm2d(192, eps=1e-05, momentum=0.1, affine=True, track_running_stats=True)
    (3): Conv2d(192, 192, kernel_size=(3, 3), stride=(1, 1), padding=(1, 1))
    (4): ReLU()
    (5): BatchNorm2d(192, eps=1e-05, momentum=0.1, affine=True, track_running_stats=True)
    (6): MaxPool2d(kernel_size=(2, 2), stride=(2, 2), padding=0, dilation=1, ceil_mode=False)
    (7): Dropout(p=0.4, inplace=False)
  )
  (flat): Flatten(start_dim=1, end_dim=-1)
  (fc1): Linear(in_features=6912, out_features=192, bias=True)
  (fc2): Linear(in_features=192, out_features=96, bias=True)
  (last2): Linear(in_features=96, out_features=48, bias=True)
  (last): ModuleDict(
    (FER): Linear(in_features=48, out_features=7, bias=True)
    (AU): Linear(in_features=48, out_features=12, bias=True)
    (AV): Linear(in_features=48, out_features=2, bias=True)
  )
)
2024-03-04 00:17:32,965 INFO:2
2024-03-04 00:17:32,965 INFO:====================== AU =======================
2024-03-04 00:17:32,966 INFO:Incremental class: Old valid output dimension: 0
2024-03-04 00:17:32,966 INFO:Incremental class: New Valid output dimension: 12
2024-03-04 00:17:32,967 INFO:Epoch:0
2024-03-04 00:17:32,967 INFO:Itr		Time		  Data		  Loss		F1
2024-03-04 00:26:14,218 INFO:got args, entered main
2024-03-04 00:26:22,650 INFO:got args, entered main
2024-03-04 00:26:27,868 INFO:Loaded AffWild2 for ALLDATA
2024-03-04 00:26:27,868 INFO:------------------------------------------------------------
2024-03-04 00:26:27,869 INFO:Task order: ['AU', 'AV', 'FER']
2024-03-04 00:26:27,912 INFO:Net(
  (layer1): Sequential(
    (0): Conv2d(3, 24, kernel_size=(3, 3), stride=(1, 1), padding=(1, 1))
    (1): ReLU()
    (2): BatchNorm2d(24, eps=1e-05, momentum=0.1, affine=True, track_running_stats=True)
    (3): Conv2d(24, 24, kernel_size=(3, 3), stride=(1, 1), padding=(1, 1))
    (4): ReLU()
    (5): BatchNorm2d(24, eps=1e-05, momentum=0.1, affine=True, track_running_stats=True)
    (6): MaxPool2d(kernel_size=(2, 2), stride=(2, 2), padding=0, dilation=1, ceil_mode=False)
    (7): Dropout(p=0.4, inplace=False)
  )
  (layer2): Sequential(
    (0): Conv2d(24, 48, kernel_size=(3, 3), stride=(1, 1), padding=(1, 1))
    (1): ReLU()
    (2): BatchNorm2d(48, eps=1e-05, momentum=0.1, affine=True, track_running_stats=True)
    (3): Conv2d(48, 48, kernel_size=(3, 3), stride=(1, 1), padding=(1, 1))
    (4): ReLU()
    (5): BatchNorm2d(48, eps=1e-05, momentum=0.1, affine=True, track_running_stats=True)
    (6): MaxPool2d(kernel_size=(2, 2), stride=(2, 2), padding=0, dilation=1, ceil_mode=False)
    (7): Dropout(p=0.4, inplace=False)
  )
  (layer3): Sequential(
    (0): Conv2d(48, 96, kernel_size=(3, 3), stride=(1, 1), padding=(1, 1))
    (1): ReLU()
    (2): BatchNorm2d(96, eps=1e-05, momentum=0.1, affine=True, track_running_stats=True)
    (3): Conv2d(96, 96, kernel_size=(3, 3), stride=(1, 1), padding=(1, 1))
    (4): ReLU()
    (5): BatchNorm2d(96, eps=1e-05, momentum=0.1, affine=True, track_running_stats=True)
    (6): MaxPool2d(kernel_size=(2, 2), stride=(2, 2), padding=0, dilation=1, ceil_mode=False)
    (7): Dropout(p=0.4, inplace=False)
  )
  (layer4): Sequential(
    (0): Conv2d(96, 192, kernel_size=(3, 3), stride=(1, 1), padding=(1, 1))
    (1): ReLU()
    (2): BatchNorm2d(192, eps=1e-05, momentum=0.1, affine=True, track_running_stats=True)
    (3): Conv2d(192, 192, kernel_size=(3, 3), stride=(1, 1), padding=(1, 1))
    (4): ReLU()
    (5): BatchNorm2d(192, eps=1e-05, momentum=0.1, affine=True, track_running_stats=True)
    (6): MaxPool2d(kernel_size=(2, 2), stride=(2, 2), padding=0, dilation=1, ceil_mode=False)
    (7): Dropout(p=0.4, inplace=False)
  )
  (flat): Flatten(start_dim=1, end_dim=-1)
  (fc1): Linear(in_features=6912, out_features=192, bias=True)
  (fc2): Linear(in_features=192, out_features=96, bias=True)
  (last2): Linear(in_features=96, out_features=48, bias=True)
  (last): ModuleDict(
    (FER): Linear(in_features=48, out_features=7, bias=True)
    (AU): Linear(in_features=48, out_features=12, bias=True)
    (AV): Linear(in_features=48, out_features=2, bias=True)
  )
)
2024-03-04 00:26:27,912 INFO:2
2024-03-04 00:26:27,912 INFO:====================== AU =======================
2024-03-04 00:26:27,913 INFO:Incremental class: Old valid output dimension: 0
2024-03-04 00:26:27,913 INFO:Incremental class: New Valid output dimension: 12
2024-03-04 00:26:27,913 INFO:Epoch:0
2024-03-04 00:26:27,914 INFO:Itr		Time		  Data		  Loss		F1
2024-03-04 00:26:44,785 INFO:got args, entered main
2024-03-04 00:26:49,851 INFO:Loaded AffWild2 for ALLDATA
2024-03-04 00:26:49,852 INFO:------------------------------------------------------------
2024-03-04 00:26:49,852 INFO:Task order: ['AU', 'AV', 'FER']
2024-03-04 00:26:49,888 INFO:Net(
  (layer1): Sequential(
    (0): Conv2d(3, 24, kernel_size=(3, 3), stride=(1, 1), padding=(1, 1))
    (1): ReLU()
    (2): BatchNorm2d(24, eps=1e-05, momentum=0.1, affine=True, track_running_stats=True)
    (3): Conv2d(24, 24, kernel_size=(3, 3), stride=(1, 1), padding=(1, 1))
    (4): ReLU()
    (5): BatchNorm2d(24, eps=1e-05, momentum=0.1, affine=True, track_running_stats=True)
    (6): MaxPool2d(kernel_size=(2, 2), stride=(2, 2), padding=0, dilation=1, ceil_mode=False)
    (7): Dropout(p=0.4, inplace=False)
  )
  (layer2): Sequential(
    (0): Conv2d(24, 48, kernel_size=(3, 3), stride=(1, 1), padding=(1, 1))
    (1): ReLU()
    (2): BatchNorm2d(48, eps=1e-05, momentum=0.1, affine=True, track_running_stats=True)
    (3): Conv2d(48, 48, kernel_size=(3, 3), stride=(1, 1), padding=(1, 1))
    (4): ReLU()
    (5): BatchNorm2d(48, eps=1e-05, momentum=0.1, affine=True, track_running_stats=True)
    (6): MaxPool2d(kernel_size=(2, 2), stride=(2, 2), padding=0, dilation=1, ceil_mode=False)
    (7): Dropout(p=0.4, inplace=False)
  )
  (layer3): Sequential(
    (0): Conv2d(48, 96, kernel_size=(3, 3), stride=(1, 1), padding=(1, 1))
    (1): ReLU()
    (2): BatchNorm2d(96, eps=1e-05, momentum=0.1, affine=True, track_running_stats=True)
    (3): Conv2d(96, 96, kernel_size=(3, 3), stride=(1, 1), padding=(1, 1))
    (4): ReLU()
    (5): BatchNorm2d(96, eps=1e-05, momentum=0.1, affine=True, track_running_stats=True)
    (6): MaxPool2d(kernel_size=(2, 2), stride=(2, 2), padding=0, dilation=1, ceil_mode=False)
    (7): Dropout(p=0.4, inplace=False)
  )
  (layer4): Sequential(
    (0): Conv2d(96, 192, kernel_size=(3, 3), stride=(1, 1), padding=(1, 1))
    (1): ReLU()
    (2): BatchNorm2d(192, eps=1e-05, momentum=0.1, affine=True, track_running_stats=True)
    (3): Conv2d(192, 192, kernel_size=(3, 3), stride=(1, 1), padding=(1, 1))
    (4): ReLU()
    (5): BatchNorm2d(192, eps=1e-05, momentum=0.1, affine=True, track_running_stats=True)
    (6): MaxPool2d(kernel_size=(2, 2), stride=(2, 2), padding=0, dilation=1, ceil_mode=False)
    (7): Dropout(p=0.4, inplace=False)
  )
  (flat): Flatten(start_dim=1, end_dim=-1)
  (fc1): Linear(in_features=6912, out_features=192, bias=True)
  (fc2): Linear(in_features=192, out_features=96, bias=True)
  (last2): Linear(in_features=96, out_features=48, bias=True)
  (last): ModuleDict(
    (FER): Linear(in_features=48, out_features=7, bias=True)
    (AU): Linear(in_features=48, out_features=12, bias=True)
    (AV): Linear(in_features=48, out_features=2, bias=True)
  )
)
2024-03-04 00:26:49,889 INFO:2
2024-03-04 00:26:49,890 INFO:====================== AU =======================
2024-03-04 00:26:49,891 INFO:Incremental class: Old valid output dimension: 0
2024-03-04 00:26:49,891 INFO:Incremental class: New Valid output dimension: 12
2024-03-04 00:26:49,892 INFO:Epoch:0
2024-03-04 00:26:49,893 INFO:Itr		Time		  Data		  Loss		F1
2024-03-04 00:27:28,953 INFO:got args, entered main
2024-03-04 00:27:33,442 INFO:Loaded AffWild2 for ALLDATA
2024-03-04 00:27:33,442 INFO:------------------------------------------------------------
2024-03-04 00:27:33,443 INFO:Task order: ['AU', 'AV', 'FER']
2024-03-04 00:27:33,467 INFO:Net(
  (layer1): Sequential(
    (0): Conv2d(3, 24, kernel_size=(3, 3), stride=(1, 1), padding=(1, 1))
    (1): ReLU()
    (2): BatchNorm2d(24, eps=1e-05, momentum=0.1, affine=True, track_running_stats=True)
    (3): Conv2d(24, 24, kernel_size=(3, 3), stride=(1, 1), padding=(1, 1))
    (4): ReLU()
    (5): BatchNorm2d(24, eps=1e-05, momentum=0.1, affine=True, track_running_stats=True)
    (6): MaxPool2d(kernel_size=(2, 2), stride=(2, 2), padding=0, dilation=1, ceil_mode=False)
    (7): Dropout(p=0.4, inplace=False)
  )
  (layer2): Sequential(
    (0): Conv2d(24, 48, kernel_size=(3, 3), stride=(1, 1), padding=(1, 1))
    (1): ReLU()
    (2): BatchNorm2d(48, eps=1e-05, momentum=0.1, affine=True, track_running_stats=True)
    (3): Conv2d(48, 48, kernel_size=(3, 3), stride=(1, 1), padding=(1, 1))
    (4): ReLU()
    (5): BatchNorm2d(48, eps=1e-05, momentum=0.1, affine=True, track_running_stats=True)
    (6): MaxPool2d(kernel_size=(2, 2), stride=(2, 2), padding=0, dilation=1, ceil_mode=False)
    (7): Dropout(p=0.4, inplace=False)
  )
  (layer3): Sequential(
    (0): Conv2d(48, 96, kernel_size=(3, 3), stride=(1, 1), padding=(1, 1))
    (1): ReLU()
    (2): BatchNorm2d(96, eps=1e-05, momentum=0.1, affine=True, track_running_stats=True)
    (3): Conv2d(96, 96, kernel_size=(3, 3), stride=(1, 1), padding=(1, 1))
    (4): ReLU()
    (5): BatchNorm2d(96, eps=1e-05, momentum=0.1, affine=True, track_running_stats=True)
    (6): MaxPool2d(kernel_size=(2, 2), stride=(2, 2), padding=0, dilation=1, ceil_mode=False)
    (7): Dropout(p=0.4, inplace=False)
  )
  (layer4): Sequential(
    (0): Conv2d(96, 192, kernel_size=(3, 3), stride=(1, 1), padding=(1, 1))
    (1): ReLU()
    (2): BatchNorm2d(192, eps=1e-05, momentum=0.1, affine=True, track_running_stats=True)
    (3): Conv2d(192, 192, kernel_size=(3, 3), stride=(1, 1), padding=(1, 1))
    (4): ReLU()
    (5): BatchNorm2d(192, eps=1e-05, momentum=0.1, affine=True, track_running_stats=True)
    (6): MaxPool2d(kernel_size=(2, 2), stride=(2, 2), padding=0, dilation=1, ceil_mode=False)
    (7): Dropout(p=0.4, inplace=False)
  )
  (flat): Flatten(start_dim=1, end_dim=-1)
  (fc1): Linear(in_features=6912, out_features=192, bias=True)
  (fc2): Linear(in_features=192, out_features=96, bias=True)
  (last2): Linear(in_features=96, out_features=48, bias=True)
  (last): ModuleDict(
    (FER): Linear(in_features=48, out_features=7, bias=True)
    (AU): Linear(in_features=48, out_features=12, bias=True)
    (AV): Linear(in_features=48, out_features=2, bias=True)
  )
)
2024-03-04 00:27:33,468 INFO:2
2024-03-04 00:27:33,468 INFO:====================== AU =======================
2024-03-04 00:27:33,469 INFO:Incremental class: Old valid output dimension: 0
2024-03-04 00:27:33,469 INFO:Incremental class: New Valid output dimension: 12
2024-03-04 00:27:33,470 INFO:Epoch:0
2024-03-04 00:27:33,471 INFO:Itr		Time		  Data		  Loss		F1
2024-03-04 00:28:33,562 INFO:got args, entered main
2024-03-04 00:28:39,024 INFO:Loaded AffWild2 for ALLDATA
2024-03-04 00:28:39,024 INFO:------------------------------------------------------------
2024-03-04 00:28:39,025 INFO:Task order: ['AU', 'AV', 'FER']
2024-03-04 00:28:39,040 INFO:Net(
  (layer1): Sequential(
    (0): Conv2d(3, 24, kernel_size=(3, 3), stride=(1, 1), padding=(1, 1))
    (1): ReLU()
    (2): BatchNorm2d(24, eps=1e-05, momentum=0.1, affine=True, track_running_stats=True)
    (3): Conv2d(24, 24, kernel_size=(3, 3), stride=(1, 1), padding=(1, 1))
    (4): ReLU()
    (5): BatchNorm2d(24, eps=1e-05, momentum=0.1, affine=True, track_running_stats=True)
    (6): MaxPool2d(kernel_size=(2, 2), stride=(2, 2), padding=0, dilation=1, ceil_mode=False)
    (7): Dropout(p=0.4, inplace=False)
  )
  (layer2): Sequential(
    (0): Conv2d(24, 48, kernel_size=(3, 3), stride=(1, 1), padding=(1, 1))
    (1): ReLU()
    (2): BatchNorm2d(48, eps=1e-05, momentum=0.1, affine=True, track_running_stats=True)
    (3): Conv2d(48, 48, kernel_size=(3, 3), stride=(1, 1), padding=(1, 1))
    (4): ReLU()
    (5): BatchNorm2d(48, eps=1e-05, momentum=0.1, affine=True, track_running_stats=True)
    (6): MaxPool2d(kernel_size=(2, 2), stride=(2, 2), padding=0, dilation=1, ceil_mode=False)
    (7): Dropout(p=0.4, inplace=False)
  )
  (layer3): Sequential(
    (0): Conv2d(48, 96, kernel_size=(3, 3), stride=(1, 1), padding=(1, 1))
    (1): ReLU()
    (2): BatchNorm2d(96, eps=1e-05, momentum=0.1, affine=True, track_running_stats=True)
    (3): Conv2d(96, 96, kernel_size=(3, 3), stride=(1, 1), padding=(1, 1))
    (4): ReLU()
    (5): BatchNorm2d(96, eps=1e-05, momentum=0.1, affine=True, track_running_stats=True)
    (6): MaxPool2d(kernel_size=(2, 2), stride=(2, 2), padding=0, dilation=1, ceil_mode=False)
    (7): Dropout(p=0.4, inplace=False)
  )
  (layer4): Sequential(
    (0): Conv2d(96, 192, kernel_size=(3, 3), stride=(1, 1), padding=(1, 1))
    (1): ReLU()
    (2): BatchNorm2d(192, eps=1e-05, momentum=0.1, affine=True, track_running_stats=True)
    (3): Conv2d(192, 192, kernel_size=(3, 3), stride=(1, 1), padding=(1, 1))
    (4): ReLU()
    (5): BatchNorm2d(192, eps=1e-05, momentum=0.1, affine=True, track_running_stats=True)
    (6): MaxPool2d(kernel_size=(2, 2), stride=(2, 2), padding=0, dilation=1, ceil_mode=False)
    (7): Dropout(p=0.4, inplace=False)
  )
  (flat): Flatten(start_dim=1, end_dim=-1)
  (fc1): Linear(in_features=6912, out_features=192, bias=True)
  (fc2): Linear(in_features=192, out_features=96, bias=True)
  (last2): Linear(in_features=96, out_features=48, bias=True)
  (last): ModuleDict(
    (FER): Linear(in_features=48, out_features=7, bias=True)
    (AU): Linear(in_features=48, out_features=12, bias=True)
    (AV): Linear(in_features=48, out_features=2, bias=True)
  )
)
2024-03-04 00:28:39,041 INFO:851
2024-03-04 00:28:39,041 INFO:====================== AU =======================
2024-03-04 00:28:39,042 INFO:Incremental class: Old valid output dimension: 0
2024-03-04 00:28:39,042 INFO:Incremental class: New Valid output dimension: 12
2024-03-04 00:28:39,043 INFO:Epoch:0
2024-03-04 00:28:39,043 INFO:Itr		Time		  Data		  Loss		F1
2024-03-04 00:31:11,898 INFO:got args, entered main
2024-03-04 00:31:16,396 INFO:Loaded AffWild2 for ALLDATA
2024-03-04 00:31:16,396 INFO:------------------------------------------------------------
2024-03-04 00:31:16,397 INFO:Task order: ['AU', 'AV', 'FER']
2024-03-04 00:31:16,416 INFO:Net(
  (layer1): Sequential(
    (0): Conv2d(3, 24, kernel_size=(3, 3), stride=(1, 1), padding=(1, 1))
    (1): ReLU()
    (2): BatchNorm2d(24, eps=1e-05, momentum=0.1, affine=True, track_running_stats=True)
    (3): Conv2d(24, 24, kernel_size=(3, 3), stride=(1, 1), padding=(1, 1))
    (4): ReLU()
    (5): BatchNorm2d(24, eps=1e-05, momentum=0.1, affine=True, track_running_stats=True)
    (6): MaxPool2d(kernel_size=(2, 2), stride=(2, 2), padding=0, dilation=1, ceil_mode=False)
    (7): Dropout(p=0.4, inplace=False)
  )
  (layer2): Sequential(
    (0): Conv2d(24, 48, kernel_size=(3, 3), stride=(1, 1), padding=(1, 1))
    (1): ReLU()
    (2): BatchNorm2d(48, eps=1e-05, momentum=0.1, affine=True, track_running_stats=True)
    (3): Conv2d(48, 48, kernel_size=(3, 3), stride=(1, 1), padding=(1, 1))
    (4): ReLU()
    (5): BatchNorm2d(48, eps=1e-05, momentum=0.1, affine=True, track_running_stats=True)
    (6): MaxPool2d(kernel_size=(2, 2), stride=(2, 2), padding=0, dilation=1, ceil_mode=False)
    (7): Dropout(p=0.4, inplace=False)
  )
  (layer3): Sequential(
    (0): Conv2d(48, 96, kernel_size=(3, 3), stride=(1, 1), padding=(1, 1))
    (1): ReLU()
    (2): BatchNorm2d(96, eps=1e-05, momentum=0.1, affine=True, track_running_stats=True)
    (3): Conv2d(96, 96, kernel_size=(3, 3), stride=(1, 1), padding=(1, 1))
    (4): ReLU()
    (5): BatchNorm2d(96, eps=1e-05, momentum=0.1, affine=True, track_running_stats=True)
    (6): MaxPool2d(kernel_size=(2, 2), stride=(2, 2), padding=0, dilation=1, ceil_mode=False)
    (7): Dropout(p=0.4, inplace=False)
  )
  (layer4): Sequential(
    (0): Conv2d(96, 192, kernel_size=(3, 3), stride=(1, 1), padding=(1, 1))
    (1): ReLU()
    (2): BatchNorm2d(192, eps=1e-05, momentum=0.1, affine=True, track_running_stats=True)
    (3): Conv2d(192, 192, kernel_size=(3, 3), stride=(1, 1), padding=(1, 1))
    (4): ReLU()
    (5): BatchNorm2d(192, eps=1e-05, momentum=0.1, affine=True, track_running_stats=True)
    (6): MaxPool2d(kernel_size=(2, 2), stride=(2, 2), padding=0, dilation=1, ceil_mode=False)
    (7): Dropout(p=0.4, inplace=False)
  )
  (flat): Flatten(start_dim=1, end_dim=-1)
  (fc1): Linear(in_features=6912, out_features=192, bias=True)
  (fc2): Linear(in_features=192, out_features=96, bias=True)
  (last2): Linear(in_features=96, out_features=48, bias=True)
  (last): ModuleDict(
    (FER): Linear(in_features=48, out_features=7, bias=True)
    (AU): Linear(in_features=48, out_features=12, bias=True)
    (AV): Linear(in_features=48, out_features=2, bias=True)
  )
)
2024-03-04 00:31:16,417 INFO:851
2024-03-04 00:31:16,417 INFO:====================== AU =======================
2024-03-04 00:31:16,418 INFO:Incremental class: Old valid output dimension: 0
2024-03-04 00:31:16,418 INFO:Incremental class: New Valid output dimension: 12
2024-03-04 00:31:16,419 INFO:Epoch:0
2024-03-04 00:31:16,421 INFO:Itr		Time		  Data		  Loss		F1
…
2024-03-04 00:33:54,547 INFO:The regularization coefficient: 0.0
2024-03-04 00:33:54,547 INFO:The last avg acc of all repeats: [31.9515051]
2024-03-04 00:33:54,548 INFO:mean: 31.951505104794 std: 0.0
2024-03-04 00:33:54,548 INFO:reg_coef: 0.0 / mean: 31.951505104794 / std: 0.0
2024-03-04 00:36:35,199 INFO:got args, entered main
2024-03-04 00:36:40,221 INFO:Loaded AffWild2 for ALLDATA
2024-03-04 00:36:40,221 INFO:------------------------------------------------------------
2024-03-04 00:36:40,222 INFO:Task order: ['AU', 'AV', 'FER']
2024-03-04 00:36:40,267 INFO:Net(
  (layer1): Sequential(
    (0): Conv2d(3, 24, kernel_size=(3, 3), stride=(1, 1), padding=(1, 1))
    (1): ReLU()
    (2): BatchNorm2d(24, eps=1e-05, momentum=0.1, affine=True, track_running_stats=True)
    (3): Conv2d(24, 24, kernel_size=(3, 3), stride=(1, 1), padding=(1, 1))
    (4): ReLU()
    (5): BatchNorm2d(24, eps=1e-05, momentum=0.1, affine=True, track_running_stats=True)
    (6): MaxPool2d(kernel_size=(2, 2), stride=(2, 2), padding=0, dilation=1, ceil_mode=False)
    (7): Dropout(p=0.4, inplace=False)
  )
  (layer2): Sequential(
    (0): Conv2d(24, 48, kernel_size=(3, 3), stride=(1, 1), padding=(1, 1))
    (1): ReLU()
    (2): BatchNorm2d(48, eps=1e-05, momentum=0.1, affine=True, track_running_stats=True)
    (3): Conv2d(48, 48, kernel_size=(3, 3), stride=(1, 1), padding=(1, 1))
    (4): ReLU()
    (5): BatchNorm2d(48, eps=1e-05, momentum=0.1, affine=True, track_running_stats=True)
    (6): MaxPool2d(kernel_size=(2, 2), stride=(2, 2), padding=0, dilation=1, ceil_mode=False)
    (7): Dropout(p=0.4, inplace=False)
  )
  (layer3): Sequential(
    (0): Conv2d(48, 96, kernel_size=(3, 3), stride=(1, 1), padding=(1, 1))
    (1): ReLU()
    (2): BatchNorm2d(96, eps=1e-05, momentum=0.1, affine=True, track_running_stats=True)
    (3): Conv2d(96, 96, kernel_size=(3, 3), stride=(1, 1), padding=(1, 1))
    (4): ReLU()
    (5): BatchNorm2d(96, eps=1e-05, momentum=0.1, affine=True, track_running_stats=True)
    (6): MaxPool2d(kernel_size=(2, 2), stride=(2, 2), padding=0, dilation=1, ceil_mode=False)
    (7): Dropout(p=0.4, inplace=False)
  )
  (layer4): Sequential(
    (0): Conv2d(96, 192, kernel_size=(3, 3), stride=(1, 1), padding=(1, 1))
    (1): ReLU()
    (2): BatchNorm2d(192, eps=1e-05, momentum=0.1, affine=True, track_running_stats=True)
    (3): Conv2d(192, 192, kernel_size=(3, 3), stride=(1, 1), padding=(1, 1))
    (4): ReLU()
    (5): BatchNorm2d(192, eps=1e-05, momentum=0.1, affine=True, track_running_stats=True)
    (6): MaxPool2d(kernel_size=(2, 2), stride=(2, 2), padding=0, dilation=1, ceil_mode=False)
    (7): Dropout(p=0.4, inplace=False)
  )
  (flat): Flatten(start_dim=1, end_dim=-1)
  (fc1): Linear(in_features=6912, out_features=192, bias=True)
  (fc2): Linear(in_features=192, out_features=96, bias=True)
  (last2): Linear(in_features=96, out_features=48, bias=True)
  (last): ModuleDict(
    (FER): Linear(in_features=48, out_features=7, bias=True)
    (AU): Linear(in_features=48, out_features=12, bias=True)
    (AV): Linear(in_features=48, out_features=2, bias=True)
  )
)
2024-03-04 00:36:40,268 INFO:851
2024-03-04 00:50:34,116 INFO:got args, entered main
2024-03-04 00:50:41,430 INFO:Loaded AffWild2 for ALLDATA
2024-03-04 00:50:41,431 INFO:------------------------------------------------------------
2024-03-04 00:50:41,432 INFO:Task order: ['AU', 'AV', 'FER']
2024-03-04 00:50:41,515 INFO:Net(
  (layer1): Sequential(
    (0): Conv2d(3, 24, kernel_size=(3, 3), stride=(1, 1), padding=(1, 1))
    (1): ReLU()
    (2): BatchNorm2d(24, eps=1e-05, momentum=0.1, affine=True, track_running_stats=True)
    (3): Conv2d(24, 24, kernel_size=(3, 3), stride=(1, 1), padding=(1, 1))
    (4): ReLU()
    (5): BatchNorm2d(24, eps=1e-05, momentum=0.1, affine=True, track_running_stats=True)
    (6): MaxPool2d(kernel_size=(2, 2), stride=(2, 2), padding=0, dilation=1, ceil_mode=False)
    (7): Dropout(p=0.4, inplace=False)
  )
  (layer2): Sequential(
    (0): Conv2d(24, 48, kernel_size=(3, 3), stride=(1, 1), padding=(1, 1))
    (1): ReLU()
    (2): BatchNorm2d(48, eps=1e-05, momentum=0.1, affine=True, track_running_stats=True)
    (3): Conv2d(48, 48, kernel_size=(3, 3), stride=(1, 1), padding=(1, 1))
    (4): ReLU()
    (5): BatchNorm2d(48, eps=1e-05, momentum=0.1, affine=True, track_running_stats=True)
    (6): MaxPool2d(kernel_size=(2, 2), stride=(2, 2), padding=0, dilation=1, ceil_mode=False)
    (7): Dropout(p=0.4, inplace=False)
  )
  (layer3): Sequential(
    (0): Conv2d(48, 96, kernel_size=(3, 3), stride=(1, 1), padding=(1, 1))
    (1): ReLU()
    (2): BatchNorm2d(96, eps=1e-05, momentum=0.1, affine=True, track_running_stats=True)
    (3): Conv2d(96, 96, kernel_size=(3, 3), stride=(1, 1), padding=(1, 1))
    (4): ReLU()
    (5): BatchNorm2d(96, eps=1e-05, momentum=0.1, affine=True, track_running_stats=True)
    (6): MaxPool2d(kernel_size=(2, 2), stride=(2, 2), padding=0, dilation=1, ceil_mode=False)
    (7): Dropout(p=0.4, inplace=False)
  )
  (layer4): Sequential(
    (0): Conv2d(96, 192, kernel_size=(3, 3), stride=(1, 1), padding=(1, 1))
    (1): ReLU()
    (2): BatchNorm2d(192, eps=1e-05, momentum=0.1, affine=True, track_running_stats=True)
    (3): Conv2d(192, 192, kernel_size=(3, 3), stride=(1, 1), padding=(1, 1))
    (4): ReLU()
    (5): BatchNorm2d(192, eps=1e-05, momentum=0.1, affine=True, track_running_stats=True)
    (6): MaxPool2d(kernel_size=(2, 2), stride=(2, 2), padding=0, dilation=1, ceil_mode=False)
    (7): Dropout(p=0.4, inplace=False)
  )
  (flat): Flatten(start_dim=1, end_dim=-1)
  (fc1): Linear(in_features=6912, out_features=192, bias=True)
  (fc2): Linear(in_features=192, out_features=96, bias=True)
  (last2): Linear(in_features=96, out_features=48, bias=True)
  (last): ModuleDict(
    (FER): Linear(in_features=48, out_features=7, bias=True)
    (AU): Linear(in_features=48, out_features=12, bias=True)
    (AV): Linear(in_features=48, out_features=2, bias=True)
  )
)
2024-03-04 00:50:41,516 INFO:851
2024-03-04 00:50:41,516 INFO:====================== AU =======================
2024-03-04 00:50:41,517 INFO:Incremental class: Old valid output dimension: 0
2024-03-04 00:50:41,517 INFO:Incremental class: New Valid output dimension: 12
2024-03-04 00:50:41,517 INFO:Epoch:0
2024-03-04 00:50:41,518 INFO:Itr		Time		  Data		  Loss		F1
…
2024-03-04 01:15:09,174 INFO:The last avg acc of all repeats: [0.02743279]
2024-03-04 01:15:09,174 INFO:mean: 0.027432791688840955 std: 0.0
2024-03-04 01:15:09,175 INFO:reg_coef: 0.0 / mean: 0.027432791688840955 / std: 0.0
2024-03-04 01:15:23,806 INFO:got args, entered main
2024-03-04 01:15:25,023 INFO:Loaded Affwild2 for AU
2024-03-04 01:15:28,958 INFO:Loaded Affwild2 for FER
2024-03-04 01:15:33,620 INFO:Loaded Affwild2 for AV
2024-03-04 01:15:33,620 INFO:------------------------------------------------------------
2024-03-04 01:15:33,622 INFO:Task order: ['AU', 'AV', 'FER']
2024-03-04 01:15:33,642 INFO:Net(
  (layer1): Sequential(
    (0): Conv2d(3, 24, kernel_size=(3, 3), stride=(1, 1), padding=(1, 1))
    (1): ReLU()
    (2): BatchNorm2d(24, eps=1e-05, momentum=0.1, affine=True, track_running_stats=True)
    (3): Conv2d(24, 24, kernel_size=(3, 3), stride=(1, 1), padding=(1, 1))
    (4): ReLU()
    (5): BatchNorm2d(24, eps=1e-05, momentum=0.1, affine=True, track_running_stats=True)
    (6): MaxPool2d(kernel_size=(2, 2), stride=(2, 2), padding=0, dilation=1, ceil_mode=False)
    (7): Dropout(p=0.4, inplace=False)
  )
  (layer2): Sequential(
    (0): Conv2d(24, 48, kernel_size=(3, 3), stride=(1, 1), padding=(1, 1))
    (1): ReLU()
    (2): BatchNorm2d(48, eps=1e-05, momentum=0.1, affine=True, track_running_stats=True)
    (3): Conv2d(48, 48, kernel_size=(3, 3), stride=(1, 1), padding=(1, 1))
    (4): ReLU()
    (5): BatchNorm2d(48, eps=1e-05, momentum=0.1, affine=True, track_running_stats=True)
    (6): MaxPool2d(kernel_size=(2, 2), stride=(2, 2), padding=0, dilation=1, ceil_mode=False)
    (7): Dropout(p=0.4, inplace=False)
  )
  (layer3): Sequential(
    (0): Conv2d(48, 96, kernel_size=(3, 3), stride=(1, 1), padding=(1, 1))
    (1): ReLU()
    (2): BatchNorm2d(96, eps=1e-05, momentum=0.1, affine=True, track_running_stats=True)
    (3): Conv2d(96, 96, kernel_size=(3, 3), stride=(1, 1), padding=(1, 1))
    (4): ReLU()
    (5): BatchNorm2d(96, eps=1e-05, momentum=0.1, affine=True, track_running_stats=True)
    (6): MaxPool2d(kernel_size=(2, 2), stride=(2, 2), padding=0, dilation=1, ceil_mode=False)
    (7): Dropout(p=0.4, inplace=False)
  )
  (layer4): Sequential(
    (0): Conv2d(96, 192, kernel_size=(3, 3), stride=(1, 1), padding=(1, 1))
    (1): ReLU()
    (2): BatchNorm2d(192, eps=1e-05, momentum=0.1, affine=True, track_running_stats=True)
    (3): Conv2d(192, 192, kernel_size=(3, 3), stride=(1, 1), padding=(1, 1))
    (4): ReLU()
    (5): BatchNorm2d(192, eps=1e-05, momentum=0.1, affine=True, track_running_stats=True)
    (6): MaxPool2d(kernel_size=(2, 2), stride=(2, 2), padding=0, dilation=1, ceil_mode=False)
    (7): Dropout(p=0.4, inplace=False)
  )
  (flat): Flatten(start_dim=1, end_dim=-1)
  (fc1): Linear(in_features=6912, out_features=192, bias=True)
  (fc2): Linear(in_features=192, out_features=96, bias=True)
  (last2): Linear(in_features=96, out_features=48, bias=True)
  (last): ModuleDict(
    (FER): Linear(in_features=48, out_features=7, bias=True)
    (AU): Linear(in_features=48, out_features=12, bias=True)
    (AV): Linear(in_features=48, out_features=2, bias=True)
  )
)
2024-03-04 01:15:33,642 INFO:19
2024-03-04 01:15:33,642 INFO:====================== AU =======================
2024-03-04 01:15:48,921 INFO:got args, entered main
2024-03-04 01:15:50,011 INFO:Loaded Affwild2 for AU
2024-03-04 01:15:54,437 INFO:Loaded Affwild2 for FER
2024-03-04 01:15:59,390 INFO:Loaded Affwild2 for AV
2024-03-04 01:15:59,391 INFO:------------------------------------------------------------
2024-03-04 01:15:59,392 INFO:Task order: ['AU', 'AV', 'FER']
2024-03-04 01:15:59,407 INFO:Net(
  (layer1): Sequential(
    (0): Conv2d(3, 24, kernel_size=(3, 3), stride=(1, 1), padding=(1, 1))
    (1): ReLU()
    (2): BatchNorm2d(24, eps=1e-05, momentum=0.1, affine=True, track_running_stats=True)
    (3): Conv2d(24, 24, kernel_size=(3, 3), stride=(1, 1), padding=(1, 1))
    (4): ReLU()
    (5): BatchNorm2d(24, eps=1e-05, momentum=0.1, affine=True, track_running_stats=True)
    (6): MaxPool2d(kernel_size=(2, 2), stride=(2, 2), padding=0, dilation=1, ceil_mode=False)
    (7): Dropout(p=0.4, inplace=False)
  )
  (layer2): Sequential(
    (0): Conv2d(24, 48, kernel_size=(3, 3), stride=(1, 1), padding=(1, 1))
    (1): ReLU()
    (2): BatchNorm2d(48, eps=1e-05, momentum=0.1, affine=True, track_running_stats=True)
    (3): Conv2d(48, 48, kernel_size=(3, 3), stride=(1, 1), padding=(1, 1))
    (4): ReLU()
    (5): BatchNorm2d(48, eps=1e-05, momentum=0.1, affine=True, track_running_stats=True)
    (6): MaxPool2d(kernel_size=(2, 2), stride=(2, 2), padding=0, dilation=1, ceil_mode=False)
    (7): Dropout(p=0.4, inplace=False)
  )
  (layer3): Sequential(
    (0): Conv2d(48, 96, kernel_size=(3, 3), stride=(1, 1), padding=(1, 1))
    (1): ReLU()
    (2): BatchNorm2d(96, eps=1e-05, momentum=0.1, affine=True, track_running_stats=True)
    (3): Conv2d(96, 96, kernel_size=(3, 3), stride=(1, 1), padding=(1, 1))
    (4): ReLU()
    (5): BatchNorm2d(96, eps=1e-05, momentum=0.1, affine=True, track_running_stats=True)
    (6): MaxPool2d(kernel_size=(2, 2), stride=(2, 2), padding=0, dilation=1, ceil_mode=False)
    (7): Dropout(p=0.4, inplace=False)
  )
  (layer4): Sequential(
    (0): Conv2d(96, 192, kernel_size=(3, 3), stride=(1, 1), padding=(1, 1))
    (1): ReLU()
    (2): BatchNorm2d(192, eps=1e-05, momentum=0.1, affine=True, track_running_stats=True)
    (3): Conv2d(192, 192, kernel_size=(3, 3), stride=(1, 1), padding=(1, 1))
    (4): ReLU()
    (5): BatchNorm2d(192, eps=1e-05, momentum=0.1, affine=True, track_running_stats=True)
    (6): MaxPool2d(kernel_size=(2, 2), stride=(2, 2), padding=0, dilation=1, ceil_mode=False)
    (7): Dropout(p=0.4, inplace=False)
  )
  (flat): Flatten(start_dim=1, end_dim=-1)
  (fc1): Linear(in_features=6912, out_features=192, bias=True)
  (fc2): Linear(in_features=192, out_features=96, bias=True)
  (last2): Linear(in_features=96, out_features=48, bias=True)
  (last): ModuleDict(
    (FER): Linear(in_features=48, out_features=7, bias=True)
    (AU): Linear(in_features=48, out_features=12, bias=True)
    (AV): Linear(in_features=48, out_features=2, bias=True)
  )
)
2024-03-04 01:15:59,407 INFO:19
2024-03-04 01:15:59,407 INFO:====================== AU =======================
2024-03-04 01:15:59,408 INFO:Incremental class: Old valid output dimension: 0
2024-03-04 01:15:59,408 INFO:Incremental class: New Valid output dimension: 12
2024-03-04 01:16:43,437 INFO:got args, entered main
2024-03-04 01:16:44,513 INFO:Loaded Affwild2 for AU
2024-03-04 01:16:48,540 INFO:Loaded Affwild2 for FER
2024-03-04 01:16:53,203 INFO:Loaded Affwild2 for AV
2024-03-04 01:16:53,203 INFO:------------------------------------------------------------
2024-03-04 01:16:53,204 INFO:Task order: ['AU', 'AV', 'FER']
2024-03-04 01:16:53,218 INFO:Net(
  (layer1): Sequential(
    (0): Conv2d(3, 24, kernel_size=(3, 3), stride=(1, 1), padding=(1, 1))
    (1): ReLU()
    (2): BatchNorm2d(24, eps=1e-05, momentum=0.1, affine=True, track_running_stats=True)
    (3): Conv2d(24, 24, kernel_size=(3, 3), stride=(1, 1), padding=(1, 1))
    (4): ReLU()
    (5): BatchNorm2d(24, eps=1e-05, momentum=0.1, affine=True, track_running_stats=True)
    (6): MaxPool2d(kernel_size=(2, 2), stride=(2, 2), padding=0, dilation=1, ceil_mode=False)
    (7): Dropout(p=0.4, inplace=False)
  )
  (layer2): Sequential(
    (0): Conv2d(24, 48, kernel_size=(3, 3), stride=(1, 1), padding=(1, 1))
    (1): ReLU()
    (2): BatchNorm2d(48, eps=1e-05, momentum=0.1, affine=True, track_running_stats=True)
    (3): Conv2d(48, 48, kernel_size=(3, 3), stride=(1, 1), padding=(1, 1))
    (4): ReLU()
    (5): BatchNorm2d(48, eps=1e-05, momentum=0.1, affine=True, track_running_stats=True)
    (6): MaxPool2d(kernel_size=(2, 2), stride=(2, 2), padding=0, dilation=1, ceil_mode=False)
    (7): Dropout(p=0.4, inplace=False)
  )
  (layer3): Sequential(
    (0): Conv2d(48, 96, kernel_size=(3, 3), stride=(1, 1), padding=(1, 1))
    (1): ReLU()
    (2): BatchNorm2d(96, eps=1e-05, momentum=0.1, affine=True, track_running_stats=True)
    (3): Conv2d(96, 96, kernel_size=(3, 3), stride=(1, 1), padding=(1, 1))
    (4): ReLU()
    (5): BatchNorm2d(96, eps=1e-05, momentum=0.1, affine=True, track_running_stats=True)
    (6): MaxPool2d(kernel_size=(2, 2), stride=(2, 2), padding=0, dilation=1, ceil_mode=False)
    (7): Dropout(p=0.4, inplace=False)
  )
  (layer4): Sequential(
    (0): Conv2d(96, 192, kernel_size=(3, 3), stride=(1, 1), padding=(1, 1))
    (1): ReLU()
    (2): BatchNorm2d(192, eps=1e-05, momentum=0.1, affine=True, track_running_stats=True)
    (3): Conv2d(192, 192, kernel_size=(3, 3), stride=(1, 1), padding=(1, 1))
    (4): ReLU()
    (5): BatchNorm2d(192, eps=1e-05, momentum=0.1, affine=True, track_running_stats=True)
    (6): MaxPool2d(kernel_size=(2, 2), stride=(2, 2), padding=0, dilation=1, ceil_mode=False)
    (7): Dropout(p=0.4, inplace=False)
  )
  (flat): Flatten(start_dim=1, end_dim=-1)
  (fc1): Linear(in_features=6912, out_features=192, bias=True)
  (fc2): Linear(in_features=192, out_features=96, bias=True)
  (last2): Linear(in_features=96, out_features=48, bias=True)
  (last): ModuleDict(
    (FER): Linear(in_features=48, out_features=7, bias=True)
    (AU): Linear(in_features=48, out_features=12, bias=True)
    (AV): Linear(in_features=48, out_features=2, bias=True)
  )
)
2024-03-04 01:16:53,218 INFO:19
2024-03-04 01:16:53,219 INFO:====================== AU =======================
2024-03-04 01:16:53,219 INFO:Incremental class: Old valid output dimension: 0
2024-03-04 01:16:53,219 INFO:Incremental class: New Valid output dimension: 12
2024-03-04 01:16:53,219 INFO:Epoch:0
2024-03-04 01:16:53,220 INFO:Itr		Time		  Data		  Loss		F1
…
2024-03-04 15:58:09,191 INFO:Itr		Time		  Data		  Loss		F1
2024-03-04 15:58:10,765 INFO:[0/14]	1.5745 (1.5745)	0.0960 (0.0960)	0.067 (0.067)	0.08 (0.08)
2024-03-04 15:58:29,623 INFO:[13/14]	0.5160 (1.4594)	0.0210 (0.0705)	0.019 (0.037)	0.14 (0.13)
2024-03-04 15:58:29,623 INFO: * Train F1 0.131
2024-03-04 15:58:49,148 INFO:got args, entered main
2024-03-04 15:58:53,462 INFO:Loaded AffWild2 for ALLDATA
2024-03-04 15:58:53,463 INFO:------------------------------------------------------------
2024-03-04 15:58:53,463 INFO:Task order: ['AU', 'AV', 'FER']
2024-03-04 15:58:53,479 INFO:Net(
  (layer1): Sequential(
    (0): Conv2d(3, 24, kernel_size=(3, 3), stride=(1, 1), padding=(1, 1))
    (1): ReLU()
    (2): BatchNorm2d(24, eps=1e-05, momentum=0.1, affine=True, track_running_stats=True)
    (3): Conv2d(24, 24, kernel_size=(3, 3), stride=(1, 1), padding=(1, 1))
    (4): ReLU()
    (5): BatchNorm2d(24, eps=1e-05, momentum=0.1, affine=True, track_running_stats=True)
    (6): MaxPool2d(kernel_size=(2, 2), stride=(2, 2), padding=0, dilation=1, ceil_mode=False)
    (7): Dropout(p=0.4, inplace=False)
  )
  (layer2): Sequential(
    (0): Conv2d(24, 48, kernel_size=(3, 3), stride=(1, 1), padding=(1, 1))
    (1): ReLU()
    (2): BatchNorm2d(48, eps=1e-05, momentum=0.1, affine=True, track_running_stats=True)
    (3): Conv2d(48, 48, kernel_size=(3, 3), stride=(1, 1), padding=(1, 1))
    (4): ReLU()
    (5): BatchNorm2d(48, eps=1e-05, momentum=0.1, affine=True, track_running_stats=True)
    (6): MaxPool2d(kernel_size=(2, 2), stride=(2, 2), padding=0, dilation=1, ceil_mode=False)
    (7): Dropout(p=0.4, inplace=False)
  )
  (layer3): Sequential(
    (0): Conv2d(48, 96, kernel_size=(3, 3), stride=(1, 1), padding=(1, 1))
    (1): ReLU()
    (2): BatchNorm2d(96, eps=1e-05, momentum=0.1, affine=True, track_running_stats=True)
    (3): Conv2d(96, 96, kernel_size=(3, 3), stride=(1, 1), padding=(1, 1))
    (4): ReLU()
    (5): BatchNorm2d(96, eps=1e-05, momentum=0.1, affine=True, track_running_stats=True)
    (6): MaxPool2d(kernel_size=(2, 2), stride=(2, 2), padding=0, dilation=1, ceil_mode=False)
    (7): Dropout(p=0.4, inplace=False)
  )
  (layer4): Sequential(
    (0): Conv2d(96, 192, kernel_size=(3, 3), stride=(1, 1), padding=(1, 1))
    (1): ReLU()
    (2): BatchNorm2d(192, eps=1e-05, momentum=0.1, affine=True, track_running_stats=True)
    (3): Conv2d(192, 192, kernel_size=(3, 3), stride=(1, 1), padding=(1, 1))
    (4): ReLU()
    (5): BatchNorm2d(192, eps=1e-05, momentum=0.1, affine=True, track_running_stats=True)
    (6): MaxPool2d(kernel_size=(2, 2), stride=(2, 2), padding=0, dilation=1, ceil_mode=False)
    (7): Dropout(p=0.4, inplace=False)
  )
  (flat): Flatten(start_dim=1, end_dim=-1)
  (fc1): Linear(in_features=6912, out_features=192, bias=True)
  (fc2): Linear(in_features=192, out_features=96, bias=True)
  (last2): Linear(in_features=96, out_features=48, bias=True)
  (last): ModuleDict(
    (FER): Linear(in_features=48, out_features=7, bias=True)
    (AU): Linear(in_features=48, out_features=12, bias=True)
    (AV): Linear(in_features=48, out_features=2, bias=True)
  )
)
2024-03-04 15:58:53,479 INFO:851
2024-03-04 15:58:53,480 INFO:====================== AU =======================
2024-03-04 15:58:53,481 INFO:Incremental class: Old valid output dimension: 0
2024-03-04 15:58:53,481 INFO:Incremental class: New Valid output dimension: 12
2024-03-04 15:58:53,481 INFO:Epoch:0
2024-03-04 15:58:53,482 INFO:Itr		Time		  Data		  Loss		F1
2024-03-04 16:00:49,042 INFO:got args, entered main
2024-03-04 16:00:53,176 INFO:Loaded AffWild2 for ALLDATA
2024-03-04 16:00:53,177 INFO:------------------------------------------------------------
2024-03-04 16:00:53,177 INFO:Task order: ['AU', 'AV', 'FER']
2024-03-04 16:00:53,201 INFO:Net(
  (layer1): Sequential(
    (0): Conv2d(3, 24, kernel_size=(3, 3), stride=(1, 1), padding=(1, 1))
    (1): ReLU()
    (2): BatchNorm2d(24, eps=1e-05, momentum=0.1, affine=True, track_running_stats=True)
    (3): Conv2d(24, 24, kernel_size=(3, 3), stride=(1, 1), padding=(1, 1))
    (4): ReLU()
    (5): BatchNorm2d(24, eps=1e-05, momentum=0.1, affine=True, track_running_stats=True)
    (6): MaxPool2d(kernel_size=(2, 2), stride=(2, 2), padding=0, dilation=1, ceil_mode=False)
    (7): Dropout(p=0.4, inplace=False)
  )
  (layer2): Sequential(
    (0): Conv2d(24, 48, kernel_size=(3, 3), stride=(1, 1), padding=(1, 1))
    (1): ReLU()
    (2): BatchNorm2d(48, eps=1e-05, momentum=0.1, affine=True, track_running_stats=True)
    (3): Conv2d(48, 48, kernel_size=(3, 3), stride=(1, 1), padding=(1, 1))
    (4): ReLU()
    (5): BatchNorm2d(48, eps=1e-05, momentum=0.1, affine=True, track_running_stats=True)
    (6): MaxPool2d(kernel_size=(2, 2), stride=(2, 2), padding=0, dilation=1, ceil_mode=False)
    (7): Dropout(p=0.4, inplace=False)
  )
  (layer3): Sequential(
    (0): Conv2d(48, 96, kernel_size=(3, 3), stride=(1, 1), padding=(1, 1))
    (1): ReLU()
    (2): BatchNorm2d(96, eps=1e-05, momentum=0.1, affine=True, track_running_stats=True)
    (3): Conv2d(96, 96, kernel_size=(3, 3), stride=(1, 1), padding=(1, 1))
    (4): ReLU()
    (5): BatchNorm2d(96, eps=1e-05, momentum=0.1, affine=True, track_running_stats=True)
    (6): MaxPool2d(kernel_size=(2, 2), stride=(2, 2), padding=0, dilation=1, ceil_mode=False)
    (7): Dropout(p=0.4, inplace=False)
  )
  (layer4): Sequential(
    (0): Conv2d(96, 192, kernel_size=(3, 3), stride=(1, 1), padding=(1, 1))
    (1): ReLU()
    (2): BatchNorm2d(192, eps=1e-05, momentum=0.1, affine=True, track_running_stats=True)
    (3): Conv2d(192, 192, kernel_size=(3, 3), stride=(1, 1), padding=(1, 1))
    (4): ReLU()
    (5): BatchNorm2d(192, eps=1e-05, momentum=0.1, affine=True, track_running_stats=True)
    (6): MaxPool2d(kernel_size=(2, 2), stride=(2, 2), padding=0, dilation=1, ceil_mode=False)
    (7): Dropout(p=0.4, inplace=False)
  )
  (flat): Flatten(start_dim=1, end_dim=-1)
  (fc1): Linear(in_features=6912, out_features=192, bias=True)
  (fc2): Linear(in_features=192, out_features=96, bias=True)
  (last2): Linear(in_features=96, out_features=48, bias=True)
  (last): ModuleDict(
    (FER): Linear(in_features=48, out_features=7, bias=True)
    (AU): Linear(in_features=48, out_features=12, bias=True)
    (AV): Linear(in_features=48, out_features=2, bias=True)
  )
)
2024-03-04 16:00:53,202 INFO:851
2024-03-04 16:00:53,202 INFO:====================== AU =======================
2024-03-04 16:00:53,203 INFO:Incremental class: Old valid output dimension: 0
2024-03-04 16:00:53,203 INFO:Incremental class: New Valid output dimension: 12
2024-03-04 16:00:53,204 INFO:Epoch:0
2024-03-04 16:00:53,204 INFO:Itr		Time		  Data		  Loss		F1
2024-03-04 16:02:20,229 INFO:got args, entered main
2024-03-04 16:02:24,876 INFO:Loaded AffWild2 for ALLDATA
2024-03-04 16:02:24,877 INFO:------------------------------------------------------------
2024-03-04 16:02:24,877 INFO:Task order: ['AU', 'AV', 'FER']
2024-03-04 16:02:24,899 INFO:Net(
  (layer1): Sequential(
    (0): Conv2d(3, 24, kernel_size=(3, 3), stride=(1, 1), padding=(1, 1))
    (1): ReLU()
    (2): BatchNorm2d(24, eps=1e-05, momentum=0.1, affine=True, track_running_stats=True)
    (3): Conv2d(24, 24, kernel_size=(3, 3), stride=(1, 1), padding=(1, 1))
    (4): ReLU()
    (5): BatchNorm2d(24, eps=1e-05, momentum=0.1, affine=True, track_running_stats=True)
    (6): MaxPool2d(kernel_size=(2, 2), stride=(2, 2), padding=0, dilation=1, ceil_mode=False)
    (7): Dropout(p=0.4, inplace=False)
  )
  (layer2): Sequential(
    (0): Conv2d(24, 48, kernel_size=(3, 3), stride=(1, 1), padding=(1, 1))
    (1): ReLU()
    (2): BatchNorm2d(48, eps=1e-05, momentum=0.1, affine=True, track_running_stats=True)
    (3): Conv2d(48, 48, kernel_size=(3, 3), stride=(1, 1), padding=(1, 1))
    (4): ReLU()
    (5): BatchNorm2d(48, eps=1e-05, momentum=0.1, affine=True, track_running_stats=True)
    (6): MaxPool2d(kernel_size=(2, 2), stride=(2, 2), padding=0, dilation=1, ceil_mode=False)
    (7): Dropout(p=0.4, inplace=False)
  )
  (layer3): Sequential(
    (0): Conv2d(48, 96, kernel_size=(3, 3), stride=(1, 1), padding=(1, 1))
    (1): ReLU()
    (2): BatchNorm2d(96, eps=1e-05, momentum=0.1, affine=True, track_running_stats=True)
    (3): Conv2d(96, 96, kernel_size=(3, 3), stride=(1, 1), padding=(1, 1))
    (4): ReLU()
    (5): BatchNorm2d(96, eps=1e-05, momentum=0.1, affine=True, track_running_stats=True)
    (6): MaxPool2d(kernel_size=(2, 2), stride=(2, 2), padding=0, dilation=1, ceil_mode=False)
    (7): Dropout(p=0.4, inplace=False)
  )
  (layer4): Sequential(
    (0): Conv2d(96, 192, kernel_size=(3, 3), stride=(1, 1), padding=(1, 1))
    (1): ReLU()
    (2): BatchNorm2d(192, eps=1e-05, momentum=0.1, affine=True, track_running_stats=True)
    (3): Conv2d(192, 192, kernel_size=(3, 3), stride=(1, 1), padding=(1, 1))
    (4): ReLU()
    (5): BatchNorm2d(192, eps=1e-05, momentum=0.1, affine=True, track_running_stats=True)
    (6): MaxPool2d(kernel_size=(2, 2), stride=(2, 2), padding=0, dilation=1, ceil_mode=False)
    (7): Dropout(p=0.4, inplace=False)
  )
  (flat): Flatten(start_dim=1, end_dim=-1)
  (fc1): Linear(in_features=6912, out_features=192, bias=True)
  (fc2): Linear(in_features=192, out_features=96, bias=True)
  (last2): Linear(in_features=96, out_features=48, bias=True)
  (last): ModuleDict(
    (FER): Linear(in_features=48, out_features=7, bias=True)
    (AU): Linear(in_features=48, out_features=12, bias=True)
    (AV): Linear(in_features=48, out_features=2, bias=True)
  )
)
2024-03-04 16:02:24,900 INFO:851
2024-03-04 16:02:24,900 INFO:====================== AU =======================
2024-03-04 16:02:24,901 INFO:Incremental class: Old valid output dimension: 0
2024-03-04 16:02:24,901 INFO:Incremental class: New Valid output dimension: 12
2024-03-04 16:02:24,902 INFO:Epoch:0
2024-03-04 16:02:24,903 INFO:Itr		Time		  Data		  Loss		F1
2024-03-04 16:03:06,984 INFO:got args, entered main
2024-03-04 16:03:11,099 INFO:Loaded AffWild2 for ALLDATA
2024-03-04 16:03:11,100 INFO:------------------------------------------------------------
2024-03-04 16:03:11,100 INFO:Task order: ['AU', 'AV', 'FER']
2024-03-04 16:03:11,115 INFO:Net(
  (layer1): Sequential(
    (0): Conv2d(3, 24, kernel_size=(3, 3), stride=(1, 1), padding=(1, 1))
    (1): ReLU()
    (2): BatchNorm2d(24, eps=1e-05, momentum=0.1, affine=True, track_running_stats=True)
    (3): Conv2d(24, 24, kernel_size=(3, 3), stride=(1, 1), padding=(1, 1))
    (4): ReLU()
    (5): BatchNorm2d(24, eps=1e-05, momentum=0.1, affine=True, track_running_stats=True)
    (6): MaxPool2d(kernel_size=(2, 2), stride=(2, 2), padding=0, dilation=1, ceil_mode=False)
    (7): Dropout(p=0.4, inplace=False)
  )
  (layer2): Sequential(
    (0): Conv2d(24, 48, kernel_size=(3, 3), stride=(1, 1), padding=(1, 1))
    (1): ReLU()
    (2): BatchNorm2d(48, eps=1e-05, momentum=0.1, affine=True, track_running_stats=True)
    (3): Conv2d(48, 48, kernel_size=(3, 3), stride=(1, 1), padding=(1, 1))
    (4): ReLU()
    (5): BatchNorm2d(48, eps=1e-05, momentum=0.1, affine=True, track_running_stats=True)
    (6): MaxPool2d(kernel_size=(2, 2), stride=(2, 2), padding=0, dilation=1, ceil_mode=False)
    (7): Dropout(p=0.4, inplace=False)
  )
  (layer3): Sequential(
    (0): Conv2d(48, 96, kernel_size=(3, 3), stride=(1, 1), padding=(1, 1))
    (1): ReLU()
    (2): BatchNorm2d(96, eps=1e-05, momentum=0.1, affine=True, track_running_stats=True)
    (3): Conv2d(96, 96, kernel_size=(3, 3), stride=(1, 1), padding=(1, 1))
    (4): ReLU()
    (5): BatchNorm2d(96, eps=1e-05, momentum=0.1, affine=True, track_running_stats=True)
    (6): MaxPool2d(kernel_size=(2, 2), stride=(2, 2), padding=0, dilation=1, ceil_mode=False)
    (7): Dropout(p=0.4, inplace=False)
  )
  (layer4): Sequential(
    (0): Conv2d(96, 192, kernel_size=(3, 3), stride=(1, 1), padding=(1, 1))
    (1): ReLU()
    (2): BatchNorm2d(192, eps=1e-05, momentum=0.1, affine=True, track_running_stats=True)
    (3): Conv2d(192, 192, kernel_size=(3, 3), stride=(1, 1), padding=(1, 1))
    (4): ReLU()
    (5): BatchNorm2d(192, eps=1e-05, momentum=0.1, affine=True, track_running_stats=True)
    (6): MaxPool2d(kernel_size=(2, 2), stride=(2, 2), padding=0, dilation=1, ceil_mode=False)
    (7): Dropout(p=0.4, inplace=False)
  )
  (flat): Flatten(start_dim=1, end_dim=-1)
  (fc1): Linear(in_features=6912, out_features=192, bias=True)
  (fc2): Linear(in_features=192, out_features=96, bias=True)
  (last2): Linear(in_features=96, out_features=48, bias=True)
  (last): ModuleDict(
    (FER): Linear(in_features=48, out_features=7, bias=True)
    (AU): Linear(in_features=48, out_features=12, bias=True)
    (AV): Linear(in_features=48, out_features=2, bias=True)
  )
)
2024-03-04 16:03:11,116 INFO:851
2024-03-04 16:03:11,116 INFO:====================== AU =======================
2024-03-04 16:03:11,118 INFO:Incremental class: Old valid output dimension: 0
2024-03-04 16:03:11,118 INFO:Incremental class: New Valid output dimension: 12
2024-03-04 16:03:11,118 INFO:Epoch:0
2024-03-04 16:03:11,119 INFO:Itr		Time		  Data		  Loss		F1
2024-03-04 16:03:27,213 INFO:got args, entered main
2024-03-04 16:03:31,322 INFO:Loaded AffWild2 for ALLDATA
2024-03-04 16:03:31,322 INFO:------------------------------------------------------------
2024-03-04 16:03:31,323 INFO:Task order: ['AU', 'AV', 'FER']
2024-03-04 16:03:31,343 INFO:Net(
  (layer1): Sequential(
    (0): Conv2d(3, 24, kernel_size=(3, 3), stride=(1, 1), padding=(1, 1))
    (1): ReLU()
    (2): BatchNorm2d(24, eps=1e-05, momentum=0.1, affine=True, track_running_stats=True)
    (3): Conv2d(24, 24, kernel_size=(3, 3), stride=(1, 1), padding=(1, 1))
    (4): ReLU()
    (5): BatchNorm2d(24, eps=1e-05, momentum=0.1, affine=True, track_running_stats=True)
    (6): MaxPool2d(kernel_size=(2, 2), stride=(2, 2), padding=0, dilation=1, ceil_mode=False)
    (7): Dropout(p=0.4, inplace=False)
  )
  (layer2): Sequential(
    (0): Conv2d(24, 48, kernel_size=(3, 3), stride=(1, 1), padding=(1, 1))
    (1): ReLU()
    (2): BatchNorm2d(48, eps=1e-05, momentum=0.1, affine=True, track_running_stats=True)
    (3): Conv2d(48, 48, kernel_size=(3, 3), stride=(1, 1), padding=(1, 1))
    (4): ReLU()
    (5): BatchNorm2d(48, eps=1e-05, momentum=0.1, affine=True, track_running_stats=True)
    (6): MaxPool2d(kernel_size=(2, 2), stride=(2, 2), padding=0, dilation=1, ceil_mode=False)
    (7): Dropout(p=0.4, inplace=False)
  )
  (layer3): Sequential(
    (0): Conv2d(48, 96, kernel_size=(3, 3), stride=(1, 1), padding=(1, 1))
    (1): ReLU()
    (2): BatchNorm2d(96, eps=1e-05, momentum=0.1, affine=True, track_running_stats=True)
    (3): Conv2d(96, 96, kernel_size=(3, 3), stride=(1, 1), padding=(1, 1))
    (4): ReLU()
    (5): BatchNorm2d(96, eps=1e-05, momentum=0.1, affine=True, track_running_stats=True)
    (6): MaxPool2d(kernel_size=(2, 2), stride=(2, 2), padding=0, dilation=1, ceil_mode=False)
    (7): Dropout(p=0.4, inplace=False)
  )
  (layer4): Sequential(
    (0): Conv2d(96, 192, kernel_size=(3, 3), stride=(1, 1), padding=(1, 1))
    (1): ReLU()
    (2): BatchNorm2d(192, eps=1e-05, momentum=0.1, affine=True, track_running_stats=True)
    (3): Conv2d(192, 192, kernel_size=(3, 3), stride=(1, 1), padding=(1, 1))
    (4): ReLU()
    (5): BatchNorm2d(192, eps=1e-05, momentum=0.1, affine=True, track_running_stats=True)
    (6): MaxPool2d(kernel_size=(2, 2), stride=(2, 2), padding=0, dilation=1, ceil_mode=False)
    (7): Dropout(p=0.4, inplace=False)
  )
  (flat): Flatten(start_dim=1, end_dim=-1)
  (fc1): Linear(in_features=6912, out_features=192, bias=True)
  (fc2): Linear(in_features=192, out_features=96, bias=True)
  (last2): Linear(in_features=96, out_features=48, bias=True)
  (last): ModuleDict(
    (FER): Linear(in_features=48, out_features=7, bias=True)
    (AU): Linear(in_features=48, out_features=12, bias=True)
    (AV): Linear(in_features=48, out_features=2, bias=True)
  )
)
2024-03-04 16:03:31,343 INFO:851
2024-03-04 16:03:31,344 INFO:====================== AU =======================
2024-03-04 16:03:31,344 INFO:Incremental class: Old valid output dimension: 0
2024-03-04 16:03:31,344 INFO:Incremental class: New Valid output dimension: 12
2024-03-04 16:03:31,345 INFO:Epoch:0
2024-03-04 16:03:31,346 INFO:Itr		Time		  Data		  Loss		F1
2024-03-04 16:03:56,001 INFO:got args, entered main
2024-03-04 16:04:00,055 INFO:Loaded AffWild2 for ALLDATA
2024-03-04 16:04:00,055 INFO:------------------------------------------------------------
2024-03-04 16:04:00,056 INFO:Task order: ['AU', 'AV', 'FER']
2024-03-04 16:04:00,070 INFO:Net(
  (layer1): Sequential(
    (0): Conv2d(3, 24, kernel_size=(3, 3), stride=(1, 1), padding=(1, 1))
    (1): ReLU()
    (2): BatchNorm2d(24, eps=1e-05, momentum=0.1, affine=True, track_running_stats=True)
    (3): Conv2d(24, 24, kernel_size=(3, 3), stride=(1, 1), padding=(1, 1))
    (4): ReLU()
    (5): BatchNorm2d(24, eps=1e-05, momentum=0.1, affine=True, track_running_stats=True)
    (6): MaxPool2d(kernel_size=(2, 2), stride=(2, 2), padding=0, dilation=1, ceil_mode=False)
    (7): Dropout(p=0.4, inplace=False)
  )
  (layer2): Sequential(
    (0): Conv2d(24, 48, kernel_size=(3, 3), stride=(1, 1), padding=(1, 1))
    (1): ReLU()
    (2): BatchNorm2d(48, eps=1e-05, momentum=0.1, affine=True, track_running_stats=True)
    (3): Conv2d(48, 48, kernel_size=(3, 3), stride=(1, 1), padding=(1, 1))
    (4): ReLU()
    (5): BatchNorm2d(48, eps=1e-05, momentum=0.1, affine=True, track_running_stats=True)
    (6): MaxPool2d(kernel_size=(2, 2), stride=(2, 2), padding=0, dilation=1, ceil_mode=False)
    (7): Dropout(p=0.4, inplace=False)
  )
  (layer3): Sequential(
    (0): Conv2d(48, 96, kernel_size=(3, 3), stride=(1, 1), padding=(1, 1))
    (1): ReLU()
    (2): BatchNorm2d(96, eps=1e-05, momentum=0.1, affine=True, track_running_stats=True)
    (3): Conv2d(96, 96, kernel_size=(3, 3), stride=(1, 1), padding=(1, 1))
    (4): ReLU()
    (5): BatchNorm2d(96, eps=1e-05, momentum=0.1, affine=True, track_running_stats=True)
    (6): MaxPool2d(kernel_size=(2, 2), stride=(2, 2), padding=0, dilation=1, ceil_mode=False)
    (7): Dropout(p=0.4, inplace=False)
  )
  (layer4): Sequential(
    (0): Conv2d(96, 192, kernel_size=(3, 3), stride=(1, 1), padding=(1, 1))
    (1): ReLU()
    (2): BatchNorm2d(192, eps=1e-05, momentum=0.1, affine=True, track_running_stats=True)
    (3): Conv2d(192, 192, kernel_size=(3, 3), stride=(1, 1), padding=(1, 1))
    (4): ReLU()
    (5): BatchNorm2d(192, eps=1e-05, momentum=0.1, affine=True, track_running_stats=True)
    (6): MaxPool2d(kernel_size=(2, 2), stride=(2, 2), padding=0, dilation=1, ceil_mode=False)
    (7): Dropout(p=0.4, inplace=False)
  )
  (flat): Flatten(start_dim=1, end_dim=-1)
  (fc1): Linear(in_features=6912, out_features=192, bias=True)
  (fc2): Linear(in_features=192, out_features=96, bias=True)
  (last2): Linear(in_features=96, out_features=48, bias=True)
  (last): ModuleDict(
    (FER): Linear(in_features=48, out_features=7, bias=True)
    (AU): Linear(in_features=48, out_features=12, bias=True)
    (AV): Linear(in_features=48, out_features=2, bias=True)
  )
)
2024-03-04 16:04:00,071 INFO:851
2024-03-04 16:04:00,071 INFO:====================== AU =======================
2024-03-04 16:04:00,071 INFO:Incremental class: Old valid output dimension: 0
2024-03-04 16:04:00,072 INFO:Incremental class: New Valid output dimension: 12
2024-03-04 16:04:00,072 INFO:Epoch:0
2024-03-04 16:04:00,073 INFO:Itr		Time		  Data		  Loss		F1
2024-03-04 16:08:15,070 INFO:got args, entered main
2024-03-04 16:08:19,002 INFO:Loaded AffWild2 for ALLDATA
2024-03-04 16:08:19,003 INFO:------------------------------------------------------------
2024-03-04 16:08:19,003 INFO:Task order: ['AU', 'AV', 'FER']
2024-03-04 16:08:19,020 INFO:Net(
  (layer1): Sequential(
    (0): Conv2d(3, 24, kernel_size=(3, 3), stride=(1, 1), padding=(1, 1))
    (1): ReLU()
    (2): BatchNorm2d(24, eps=1e-05, momentum=0.1, affine=True, track_running_stats=True)
    (3): Conv2d(24, 24, kernel_size=(3, 3), stride=(1, 1), padding=(1, 1))
    (4): ReLU()
    (5): BatchNorm2d(24, eps=1e-05, momentum=0.1, affine=True, track_running_stats=True)
    (6): MaxPool2d(kernel_size=(2, 2), stride=(2, 2), padding=0, dilation=1, ceil_mode=False)
    (7): Dropout(p=0.4, inplace=False)
  )
  (layer2): Sequential(
    (0): Conv2d(24, 48, kernel_size=(3, 3), stride=(1, 1), padding=(1, 1))
    (1): ReLU()
    (2): BatchNorm2d(48, eps=1e-05, momentum=0.1, affine=True, track_running_stats=True)
    (3): Conv2d(48, 48, kernel_size=(3, 3), stride=(1, 1), padding=(1, 1))
    (4): ReLU()
    (5): BatchNorm2d(48, eps=1e-05, momentum=0.1, affine=True, track_running_stats=True)
    (6): MaxPool2d(kernel_size=(2, 2), stride=(2, 2), padding=0, dilation=1, ceil_mode=False)
    (7): Dropout(p=0.4, inplace=False)
  )
  (layer3): Sequential(
    (0): Conv2d(48, 96, kernel_size=(3, 3), stride=(1, 1), padding=(1, 1))
    (1): ReLU()
    (2): BatchNorm2d(96, eps=1e-05, momentum=0.1, affine=True, track_running_stats=True)
    (3): Conv2d(96, 96, kernel_size=(3, 3), stride=(1, 1), padding=(1, 1))
    (4): ReLU()
    (5): BatchNorm2d(96, eps=1e-05, momentum=0.1, affine=True, track_running_stats=True)
    (6): MaxPool2d(kernel_size=(2, 2), stride=(2, 2), padding=0, dilation=1, ceil_mode=False)
    (7): Dropout(p=0.4, inplace=False)
  )
  (layer4): Sequential(
    (0): Conv2d(96, 192, kernel_size=(3, 3), stride=(1, 1), padding=(1, 1))
    (1): ReLU()
    (2): BatchNorm2d(192, eps=1e-05, momentum=0.1, affine=True, track_running_stats=True)
    (3): Conv2d(192, 192, kernel_size=(3, 3), stride=(1, 1), padding=(1, 1))
    (4): ReLU()
    (5): BatchNorm2d(192, eps=1e-05, momentum=0.1, affine=True, track_running_stats=True)
    (6): MaxPool2d(kernel_size=(2, 2), stride=(2, 2), padding=0, dilation=1, ceil_mode=False)
    (7): Dropout(p=0.4, inplace=False)
  )
  (flat): Flatten(start_dim=1, end_dim=-1)
  (fc1): Linear(in_features=6912, out_features=192, bias=True)
  (fc2): Linear(in_features=192, out_features=96, bias=True)
  (last2): Linear(in_features=96, out_features=48, bias=True)
  (last): ModuleDict(
    (FER): Linear(in_features=48, out_features=7, bias=True)
    (AU): Linear(in_features=48, out_features=12, bias=True)
    (AV): Linear(in_features=48, out_features=2, bias=True)
  )
)
2024-03-04 16:08:19,020 INFO:851
2024-03-04 16:08:19,020 INFO:====================== AU =======================
2024-03-04 16:08:19,021 INFO:Incremental class: Old valid output dimension: 0
2024-03-04 16:08:19,021 INFO:Incremental class: New Valid output dimension: 12
2024-03-04 16:08:19,021 INFO:Epoch:0
2024-03-04 16:08:19,022 INFO:Itr		Time		  Data		  Loss		F1
2024-03-04 16:10:01,786 INFO:got args, entered main
2024-03-04 16:10:06,905 INFO:Loaded AffWild2 for ALLDATA
2024-03-04 16:10:06,905 INFO:------------------------------------------------------------
2024-03-04 16:10:06,906 INFO:Task order: ['AU', 'AV', 'FER']
2024-03-04 16:10:06,919 INFO:Net(
  (layer1): Sequential(
    (0): Conv2d(3, 24, kernel_size=(3, 3), stride=(1, 1), padding=(1, 1))
    (1): ReLU()
    (2): BatchNorm2d(24, eps=1e-05, momentum=0.1, affine=True, track_running_stats=True)
    (3): Conv2d(24, 24, kernel_size=(3, 3), stride=(1, 1), padding=(1, 1))
    (4): ReLU()
    (5): BatchNorm2d(24, eps=1e-05, momentum=0.1, affine=True, track_running_stats=True)
    (6): MaxPool2d(kernel_size=(2, 2), stride=(2, 2), padding=0, dilation=1, ceil_mode=False)
    (7): Dropout(p=0.4, inplace=False)
  )
  (layer2): Sequential(
    (0): Conv2d(24, 48, kernel_size=(3, 3), stride=(1, 1), padding=(1, 1))
    (1): ReLU()
    (2): BatchNorm2d(48, eps=1e-05, momentum=0.1, affine=True, track_running_stats=True)
    (3): Conv2d(48, 48, kernel_size=(3, 3), stride=(1, 1), padding=(1, 1))
    (4): ReLU()
    (5): BatchNorm2d(48, eps=1e-05, momentum=0.1, affine=True, track_running_stats=True)
    (6): MaxPool2d(kernel_size=(2, 2), stride=(2, 2), padding=0, dilation=1, ceil_mode=False)
    (7): Dropout(p=0.4, inplace=False)
  )
  (layer3): Sequential(
    (0): Conv2d(48, 96, kernel_size=(3, 3), stride=(1, 1), padding=(1, 1))
    (1): ReLU()
    (2): BatchNorm2d(96, eps=1e-05, momentum=0.1, affine=True, track_running_stats=True)
    (3): Conv2d(96, 96, kernel_size=(3, 3), stride=(1, 1), padding=(1, 1))
    (4): ReLU()
    (5): BatchNorm2d(96, eps=1e-05, momentum=0.1, affine=True, track_running_stats=True)
    (6): MaxPool2d(kernel_size=(2, 2), stride=(2, 2), padding=0, dilation=1, ceil_mode=False)
    (7): Dropout(p=0.4, inplace=False)
  )
  (layer4): Sequential(
    (0): Conv2d(96, 192, kernel_size=(3, 3), stride=(1, 1), padding=(1, 1))
    (1): ReLU()
    (2): BatchNorm2d(192, eps=1e-05, momentum=0.1, affine=True, track_running_stats=True)
    (3): Conv2d(192, 192, kernel_size=(3, 3), stride=(1, 1), padding=(1, 1))
    (4): ReLU()
    (5): BatchNorm2d(192, eps=1e-05, momentum=0.1, affine=True, track_running_stats=True)
    (6): MaxPool2d(kernel_size=(2, 2), stride=(2, 2), padding=0, dilation=1, ceil_mode=False)
    (7): Dropout(p=0.4, inplace=False)
  )
  (flat): Flatten(start_dim=1, end_dim=-1)
  (fc1): Linear(in_features=6912, out_features=192, bias=True)
  (fc2): Linear(in_features=192, out_features=96, bias=True)
  (last2): Linear(in_features=96, out_features=48, bias=True)
  (last): ModuleDict(
    (FER): Linear(in_features=48, out_features=7, bias=True)
    (AU): Linear(in_features=48, out_features=12, bias=True)
    (AV): Linear(in_features=48, out_features=2, bias=True)
  )
)
2024-03-04 16:10:06,920 INFO:851
2024-03-04 16:10:06,920 INFO:====================== AU =======================
2024-03-04 16:10:06,920 INFO:Incremental class: Old valid output dimension: 0
2024-03-04 16:10:06,920 INFO:Incremental class: New Valid output dimension: 12
2024-03-04 16:10:06,921 INFO:Epoch:0
2024-03-04 16:10:06,921 INFO:Itr		Time		  Data		  Loss		F1
2024-03-04 16:10:50,066 INFO:got args, entered main
2024-03-04 16:10:55,136 INFO:Loaded AffWild2 for ALLDATA
2024-03-04 16:10:55,137 INFO:------------------------------------------------------------
2024-03-04 16:10:55,137 INFO:Task order: ['AU', 'AV', 'FER']
2024-03-04 16:10:55,156 INFO:Net(
  (layer1): Sequential(
    (0): Conv2d(3, 24, kernel_size=(3, 3), stride=(1, 1), padding=(1, 1))
    (1): ReLU()
    (2): BatchNorm2d(24, eps=1e-05, momentum=0.1, affine=True, track_running_stats=True)
    (3): Conv2d(24, 24, kernel_size=(3, 3), stride=(1, 1), padding=(1, 1))
    (4): ReLU()
    (5): BatchNorm2d(24, eps=1e-05, momentum=0.1, affine=True, track_running_stats=True)
    (6): MaxPool2d(kernel_size=(2, 2), stride=(2, 2), padding=0, dilation=1, ceil_mode=False)
    (7): Dropout(p=0.4, inplace=False)
  )
  (layer2): Sequential(
    (0): Conv2d(24, 48, kernel_size=(3, 3), stride=(1, 1), padding=(1, 1))
    (1): ReLU()
    (2): BatchNorm2d(48, eps=1e-05, momentum=0.1, affine=True, track_running_stats=True)
    (3): Conv2d(48, 48, kernel_size=(3, 3), stride=(1, 1), padding=(1, 1))
    (4): ReLU()
    (5): BatchNorm2d(48, eps=1e-05, momentum=0.1, affine=True, track_running_stats=True)
    (6): MaxPool2d(kernel_size=(2, 2), stride=(2, 2), padding=0, dilation=1, ceil_mode=False)
    (7): Dropout(p=0.4, inplace=False)
  )
  (layer3): Sequential(
    (0): Conv2d(48, 96, kernel_size=(3, 3), stride=(1, 1), padding=(1, 1))
    (1): ReLU()
    (2): BatchNorm2d(96, eps=1e-05, momentum=0.1, affine=True, track_running_stats=True)
    (3): Conv2d(96, 96, kernel_size=(3, 3), stride=(1, 1), padding=(1, 1))
    (4): ReLU()
    (5): BatchNorm2d(96, eps=1e-05, momentum=0.1, affine=True, track_running_stats=True)
    (6): MaxPool2d(kernel_size=(2, 2), stride=(2, 2), padding=0, dilation=1, ceil_mode=False)
    (7): Dropout(p=0.4, inplace=False)
  )
  (layer4): Sequential(
    (0): Conv2d(96, 192, kernel_size=(3, 3), stride=(1, 1), padding=(1, 1))
    (1): ReLU()
    (2): BatchNorm2d(192, eps=1e-05, momentum=0.1, affine=True, track_running_stats=True)
    (3): Conv2d(192, 192, kernel_size=(3, 3), stride=(1, 1), padding=(1, 1))
    (4): ReLU()
    (5): BatchNorm2d(192, eps=1e-05, momentum=0.1, affine=True, track_running_stats=True)
    (6): MaxPool2d(kernel_size=(2, 2), stride=(2, 2), padding=0, dilation=1, ceil_mode=False)
    (7): Dropout(p=0.4, inplace=False)
  )
  (flat): Flatten(start_dim=1, end_dim=-1)
  (fc1): Linear(in_features=6912, out_features=192, bias=True)
  (fc2): Linear(in_features=192, out_features=96, bias=True)
  (last2): Linear(in_features=96, out_features=48, bias=True)
  (last): ModuleDict(
    (FER): Linear(in_features=48, out_features=7, bias=True)
    (AU): Linear(in_features=48, out_features=12, bias=True)
    (AV): Linear(in_features=48, out_features=2, bias=True)
  )
)
2024-03-04 16:10:55,156 INFO:851
2024-03-04 16:10:55,156 INFO:====================== AU =======================
2024-03-04 16:10:55,157 INFO:Incremental class: Old valid output dimension: 0
2024-03-04 16:10:55,158 INFO:Incremental class: New Valid output dimension: 12
2024-03-04 16:10:55,158 INFO:Epoch:0
2024-03-04 16:10:55,159 INFO:Itr		Time		  Data		  Loss		F1
2024-03-04 16:11:12,313 INFO:got args, entered main
2024-03-04 16:11:16,738 INFO:Loaded AffWild2 for ALLDATA
2024-03-04 16:11:16,739 INFO:------------------------------------------------------------
2024-03-04 16:11:16,739 INFO:Task order: ['AU', 'AV', 'FER']
2024-03-04 16:11:16,756 INFO:Net(
  (layer1): Sequential(
    (0): Conv2d(3, 24, kernel_size=(3, 3), stride=(1, 1), padding=(1, 1))
    (1): ReLU()
    (2): BatchNorm2d(24, eps=1e-05, momentum=0.1, affine=True, track_running_stats=True)
    (3): Conv2d(24, 24, kernel_size=(3, 3), stride=(1, 1), padding=(1, 1))
    (4): ReLU()
    (5): BatchNorm2d(24, eps=1e-05, momentum=0.1, affine=True, track_running_stats=True)
    (6): MaxPool2d(kernel_size=(2, 2), stride=(2, 2), padding=0, dilation=1, ceil_mode=False)
    (7): Dropout(p=0.4, inplace=False)
  )
  (layer2): Sequential(
    (0): Conv2d(24, 48, kernel_size=(3, 3), stride=(1, 1), padding=(1, 1))
    (1): ReLU()
    (2): BatchNorm2d(48, eps=1e-05, momentum=0.1, affine=True, track_running_stats=True)
    (3): Conv2d(48, 48, kernel_size=(3, 3), stride=(1, 1), padding=(1, 1))
    (4): ReLU()
    (5): BatchNorm2d(48, eps=1e-05, momentum=0.1, affine=True, track_running_stats=True)
    (6): MaxPool2d(kernel_size=(2, 2), stride=(2, 2), padding=0, dilation=1, ceil_mode=False)
    (7): Dropout(p=0.4, inplace=False)
  )
  (layer3): Sequential(
    (0): Conv2d(48, 96, kernel_size=(3, 3), stride=(1, 1), padding=(1, 1))
    (1): ReLU()
    (2): BatchNorm2d(96, eps=1e-05, momentum=0.1, affine=True, track_running_stats=True)
    (3): Conv2d(96, 96, kernel_size=(3, 3), stride=(1, 1), padding=(1, 1))
    (4): ReLU()
    (5): BatchNorm2d(96, eps=1e-05, momentum=0.1, affine=True, track_running_stats=True)
    (6): MaxPool2d(kernel_size=(2, 2), stride=(2, 2), padding=0, dilation=1, ceil_mode=False)
    (7): Dropout(p=0.4, inplace=False)
  )
  (layer4): Sequential(
    (0): Conv2d(96, 192, kernel_size=(3, 3), stride=(1, 1), padding=(1, 1))
    (1): ReLU()
    (2): BatchNorm2d(192, eps=1e-05, momentum=0.1, affine=True, track_running_stats=True)
    (3): Conv2d(192, 192, kernel_size=(3, 3), stride=(1, 1), padding=(1, 1))
    (4): ReLU()
    (5): BatchNorm2d(192, eps=1e-05, momentum=0.1, affine=True, track_running_stats=True)
    (6): MaxPool2d(kernel_size=(2, 2), stride=(2, 2), padding=0, dilation=1, ceil_mode=False)
    (7): Dropout(p=0.4, inplace=False)
  )
  (flat): Flatten(start_dim=1, end_dim=-1)
  (fc1): Linear(in_features=6912, out_features=192, bias=True)
  (fc2): Linear(in_features=192, out_features=96, bias=True)
  (last2): Linear(in_features=96, out_features=48, bias=True)
  (last): ModuleDict(
    (FER): Linear(in_features=48, out_features=7, bias=True)
    (AU): Linear(in_features=48, out_features=12, bias=True)
    (AV): Linear(in_features=48, out_features=2, bias=True)
  )
)
2024-03-04 16:11:16,756 INFO:851
2024-03-04 16:11:16,756 INFO:====================== AU =======================
2024-03-04 16:11:16,757 INFO:Incremental class: Old valid output dimension: 0
2024-03-04 16:11:16,757 INFO:Incremental class: New Valid output dimension: 12
2024-03-04 16:11:16,758 INFO:Epoch:0
2024-03-04 16:11:16,759 INFO:Itr		Time		  Data		  Loss		F1
2024-03-04 16:12:49,440 INFO:[0/14]	92.6816 (92.6816)	0.1072 (0.1072)	0.019 (0.019)	0.00 (0.00)
2024-03-04 16:14:37,787 INFO:got args, entered main
2024-03-04 16:14:42,165 INFO:Loaded AffWild2 for ALLDATA
2024-03-04 16:14:42,166 INFO:------------------------------------------------------------
2024-03-04 16:14:42,166 INFO:Task order: ['AU', 'AV', 'FER']
2024-03-04 16:14:42,187 INFO:Net(
  (layer1): Sequential(
    (0): Conv2d(3, 24, kernel_size=(3, 3), stride=(1, 1), padding=(1, 1))
    (1): ReLU()
    (2): BatchNorm2d(24, eps=1e-05, momentum=0.1, affine=True, track_running_stats=True)
    (3): Conv2d(24, 24, kernel_size=(3, 3), stride=(1, 1), padding=(1, 1))
    (4): ReLU()
    (5): BatchNorm2d(24, eps=1e-05, momentum=0.1, affine=True, track_running_stats=True)
    (6): MaxPool2d(kernel_size=(2, 2), stride=(2, 2), padding=0, dilation=1, ceil_mode=False)
    (7): Dropout(p=0.4, inplace=False)
  )
  (layer2): Sequential(
    (0): Conv2d(24, 48, kernel_size=(3, 3), stride=(1, 1), padding=(1, 1))
    (1): ReLU()
    (2): BatchNorm2d(48, eps=1e-05, momentum=0.1, affine=True, track_running_stats=True)
    (3): Conv2d(48, 48, kernel_size=(3, 3), stride=(1, 1), padding=(1, 1))
    (4): ReLU()
    (5): BatchNorm2d(48, eps=1e-05, momentum=0.1, affine=True, track_running_stats=True)
    (6): MaxPool2d(kernel_size=(2, 2), stride=(2, 2), padding=0, dilation=1, ceil_mode=False)
    (7): Dropout(p=0.4, inplace=False)
  )
  (layer3): Sequential(
    (0): Conv2d(48, 96, kernel_size=(3, 3), stride=(1, 1), padding=(1, 1))
    (1): ReLU()
    (2): BatchNorm2d(96, eps=1e-05, momentum=0.1, affine=True, track_running_stats=True)
    (3): Conv2d(96, 96, kernel_size=(3, 3), stride=(1, 1), padding=(1, 1))
    (4): ReLU()
    (5): BatchNorm2d(96, eps=1e-05, momentum=0.1, affine=True, track_running_stats=True)
    (6): MaxPool2d(kernel_size=(2, 2), stride=(2, 2), padding=0, dilation=1, ceil_mode=False)
    (7): Dropout(p=0.4, inplace=False)
  )
  (layer4): Sequential(
    (0): Conv2d(96, 192, kernel_size=(3, 3), stride=(1, 1), padding=(1, 1))
    (1): ReLU()
    (2): BatchNorm2d(192, eps=1e-05, momentum=0.1, affine=True, track_running_stats=True)
    (3): Conv2d(192, 192, kernel_size=(3, 3), stride=(1, 1), padding=(1, 1))
    (4): ReLU()
    (5): BatchNorm2d(192, eps=1e-05, momentum=0.1, affine=True, track_running_stats=True)
    (6): MaxPool2d(kernel_size=(2, 2), stride=(2, 2), padding=0, dilation=1, ceil_mode=False)
    (7): Dropout(p=0.4, inplace=False)
  )
  (flat): Flatten(start_dim=1, end_dim=-1)
  (fc1): Linear(in_features=6912, out_features=192, bias=True)
  (fc2): Linear(in_features=192, out_features=96, bias=True)
  (last2): Linear(in_features=96, out_features=48, bias=True)
  (last): ModuleDict(
    (FER): Linear(in_features=48, out_features=7, bias=True)
    (AU): Linear(in_features=48, out_features=12, bias=True)
    (AV): Linear(in_features=48, out_features=2, bias=True)
  )
)
2024-03-04 16:14:42,187 INFO:851
2024-03-04 16:14:42,188 INFO:====================== AU =======================
2024-03-04 16:14:42,188 INFO:Incremental class: Old valid output dimension: 0
2024-03-04 16:14:42,189 INFO:Incremental class: New Valid output dimension: 12
2024-03-04 16:14:42,189 INFO:Epoch:0
2024-03-04 16:14:42,190 INFO:Itr		Time		  Data		  Loss		F1
2024-03-04 16:16:17,504 INFO:got args, entered main
2024-03-04 16:16:21,933 INFO:Loaded AffWild2 for ALLDATA
2024-03-04 16:16:21,934 INFO:------------------------------------------------------------
2024-03-04 16:16:21,934 INFO:Task order: ['AU', 'AV', 'FER']
2024-03-04 16:16:21,949 INFO:Net(
  (layer1): Sequential(
    (0): Conv2d(3, 24, kernel_size=(3, 3), stride=(1, 1), padding=(1, 1))
    (1): ReLU()
    (2): BatchNorm2d(24, eps=1e-05, momentum=0.1, affine=True, track_running_stats=True)
    (3): Conv2d(24, 24, kernel_size=(3, 3), stride=(1, 1), padding=(1, 1))
    (4): ReLU()
    (5): BatchNorm2d(24, eps=1e-05, momentum=0.1, affine=True, track_running_stats=True)
    (6): MaxPool2d(kernel_size=(2, 2), stride=(2, 2), padding=0, dilation=1, ceil_mode=False)
    (7): Dropout(p=0.4, inplace=False)
  )
  (layer2): Sequential(
    (0): Conv2d(24, 48, kernel_size=(3, 3), stride=(1, 1), padding=(1, 1))
    (1): ReLU()
    (2): BatchNorm2d(48, eps=1e-05, momentum=0.1, affine=True, track_running_stats=True)
    (3): Conv2d(48, 48, kernel_size=(3, 3), stride=(1, 1), padding=(1, 1))
    (4): ReLU()
    (5): BatchNorm2d(48, eps=1e-05, momentum=0.1, affine=True, track_running_stats=True)
    (6): MaxPool2d(kernel_size=(2, 2), stride=(2, 2), padding=0, dilation=1, ceil_mode=False)
    (7): Dropout(p=0.4, inplace=False)
  )
  (layer3): Sequential(
    (0): Conv2d(48, 96, kernel_size=(3, 3), stride=(1, 1), padding=(1, 1))
    (1): ReLU()
    (2): BatchNorm2d(96, eps=1e-05, momentum=0.1, affine=True, track_running_stats=True)
    (3): Conv2d(96, 96, kernel_size=(3, 3), stride=(1, 1), padding=(1, 1))
    (4): ReLU()
    (5): BatchNorm2d(96, eps=1e-05, momentum=0.1, affine=True, track_running_stats=True)
    (6): MaxPool2d(kernel_size=(2, 2), stride=(2, 2), padding=0, dilation=1, ceil_mode=False)
    (7): Dropout(p=0.4, inplace=False)
  )
  (layer4): Sequential(
    (0): Conv2d(96, 192, kernel_size=(3, 3), stride=(1, 1), padding=(1, 1))
    (1): ReLU()
    (2): BatchNorm2d(192, eps=1e-05, momentum=0.1, affine=True, track_running_stats=True)
    (3): Conv2d(192, 192, kernel_size=(3, 3), stride=(1, 1), padding=(1, 1))
    (4): ReLU()
    (5): BatchNorm2d(192, eps=1e-05, momentum=0.1, affine=True, track_running_stats=True)
    (6): MaxPool2d(kernel_size=(2, 2), stride=(2, 2), padding=0, dilation=1, ceil_mode=False)
    (7): Dropout(p=0.4, inplace=False)
  )
  (flat): Flatten(start_dim=1, end_dim=-1)
  (fc1): Linear(in_features=6912, out_features=192, bias=True)
  (fc2): Linear(in_features=192, out_features=96, bias=True)
  (last2): Linear(in_features=96, out_features=48, bias=True)
  (last): ModuleDict(
    (FER): Linear(in_features=48, out_features=7, bias=True)
    (AU): Linear(in_features=48, out_features=12, bias=True)
    (AV): Linear(in_features=48, out_features=2, bias=True)
  )
)
2024-03-04 16:16:21,949 INFO:213
2024-03-04 16:16:21,949 INFO:====================== AU =======================
2024-03-04 16:16:21,950 INFO:Incremental class: Old valid output dimension: 0
2024-03-04 16:16:21,950 INFO:Incremental class: New Valid output dimension: 12
2024-03-04 16:16:21,950 INFO:Epoch:0
2024-03-04 16:16:21,951 INFO:Itr		Time		  Data		  Loss		F1
…
2024-03-04 23:20:51,545 INFO:====================== FER =======================
2024-03-04 23:20:51,546 INFO:Incremental class: Old valid output dimension: 14
2024-03-04 23:20:51,546 INFO:Incremental class: New Valid output dimension: 21
2024-03-04 23:20:51,547 INFO:Epoch:0
2024-03-04 23:20:51,547 INFO:Itr		Time		  Data		  Loss		Acc
2024-03-04 23:22:25,703 INFO:got args, entered main
2024-03-04 23:22:31,949 INFO:Loaded AffWild2 for ALLDATA
2024-03-04 23:22:31,950 INFO:------------------------------------------------------------
2024-03-04 23:22:31,950 INFO:Task order: ['FER', 'AV', 'AU']
2024-03-04 23:22:31,967 INFO:Net(
  (layer1): Sequential(
    (0): Conv2d(3, 24, kernel_size=(3, 3), stride=(1, 1), padding=(1, 1))
    (1): ReLU()
    (2): BatchNorm2d(24, eps=1e-05, momentum=0.1, affine=True, track_running_stats=True)
    (3): Conv2d(24, 24, kernel_size=(3, 3), stride=(1, 1), padding=(1, 1))
    (4): ReLU()
    (5): BatchNorm2d(24, eps=1e-05, momentum=0.1, affine=True, track_running_stats=True)
    (6): MaxPool2d(kernel_size=(2, 2), stride=(2, 2), padding=0, dilation=1, ceil_mode=False)
    (7): Dropout(p=0.4, inplace=False)
  )
  (layer2): Sequential(
    (0): Conv2d(24, 48, kernel_size=(3, 3), stride=(1, 1), padding=(1, 1))
    (1): ReLU()
    (2): BatchNorm2d(48, eps=1e-05, momentum=0.1, affine=True, track_running_stats=True)
    (3): Conv2d(48, 48, kernel_size=(3, 3), stride=(1, 1), padding=(1, 1))
    (4): ReLU()
    (5): BatchNorm2d(48, eps=1e-05, momentum=0.1, affine=True, track_running_stats=True)
    (6): MaxPool2d(kernel_size=(2, 2), stride=(2, 2), padding=0, dilation=1, ceil_mode=False)
    (7): Dropout(p=0.4, inplace=False)
  )
  (layer3): Sequential(
    (0): Conv2d(48, 96, kernel_size=(3, 3), stride=(1, 1), padding=(1, 1))
    (1): ReLU()
    (2): BatchNorm2d(96, eps=1e-05, momentum=0.1, affine=True, track_running_stats=True)
    (3): Conv2d(96, 96, kernel_size=(3, 3), stride=(1, 1), padding=(1, 1))
    (4): ReLU()
    (5): BatchNorm2d(96, eps=1e-05, momentum=0.1, affine=True, track_running_stats=True)
    (6): MaxPool2d(kernel_size=(2, 2), stride=(2, 2), padding=0, dilation=1, ceil_mode=False)
    (7): Dropout(p=0.4, inplace=False)
  )
  (layer4): Sequential(
    (0): Conv2d(96, 192, kernel_size=(3, 3), stride=(1, 1), padding=(1, 1))
    (1): ReLU()
    (2): BatchNorm2d(192, eps=1e-05, momentum=0.1, affine=True, track_running_stats=True)
    (3): Conv2d(192, 192, kernel_size=(3, 3), stride=(1, 1), padding=(1, 1))
    (4): ReLU()
    (5): BatchNorm2d(192, eps=1e-05, momentum=0.1, affine=True, track_running_stats=True)
    (6): MaxPool2d(kernel_size=(2, 2), stride=(2, 2), padding=0, dilation=1, ceil_mode=False)
    (7): Dropout(p=0.4, inplace=False)
  )
  (flat): Flatten(start_dim=1, end_dim=-1)
  (fc1): Linear(in_features=6912, out_features=192, bias=True)
  (fc2): Linear(in_features=192, out_features=96, bias=True)
  (last2): Linear(in_features=96, out_features=48, bias=True)
  (last): ModuleDict(
    (FER): Linear(in_features=48, out_features=7, bias=True)
    (AU): Linear(in_features=48, out_features=12, bias=True)
    (AV): Linear(in_features=48, out_features=2, bias=True)
  )
)
2024-03-04 23:22:31,968 INFO:213
2024-03-04 23:22:31,969 INFO:====================== FER =======================
2024-03-04 23:22:31,969 INFO:Incremental class: Old valid output dimension: 0
2024-03-04 23:22:31,969 INFO:Incremental class: New Valid output dimension: 7
2024-03-04 23:22:31,970 INFO:Epoch:0
2024-03-04 23:22:31,971 INFO:Itr		Time		  Data		  Loss		Acc
2024-03-04 23:23:02,754 INFO:got args, entered main
2024-03-04 23:23:07,564 INFO:Loaded AffWild2 for ALLDATA
2024-03-04 23:23:07,566 INFO:------------------------------------------------------------
2024-03-04 23:23:07,566 INFO:Task order: ['FER', 'AV', 'AU']
2024-03-04 23:23:07,584 INFO:Net(
  (layer1): Sequential(
    (0): Conv2d(3, 24, kernel_size=(3, 3), stride=(1, 1), padding=(1, 1))
    (1): ReLU()
    (2): BatchNorm2d(24, eps=1e-05, momentum=0.1, affine=True, track_running_stats=True)
    (3): Conv2d(24, 24, kernel_size=(3, 3), stride=(1, 1), padding=(1, 1))
    (4): ReLU()
    (5): BatchNorm2d(24, eps=1e-05, momentum=0.1, affine=True, track_running_stats=True)
    (6): MaxPool2d(kernel_size=(2, 2), stride=(2, 2), padding=0, dilation=1, ceil_mode=False)
    (7): Dropout(p=0.4, inplace=False)
  )
  (layer2): Sequential(
    (0): Conv2d(24, 48, kernel_size=(3, 3), stride=(1, 1), padding=(1, 1))
    (1): ReLU()
    (2): BatchNorm2d(48, eps=1e-05, momentum=0.1, affine=True, track_running_stats=True)
    (3): Conv2d(48, 48, kernel_size=(3, 3), stride=(1, 1), padding=(1, 1))
    (4): ReLU()
    (5): BatchNorm2d(48, eps=1e-05, momentum=0.1, affine=True, track_running_stats=True)
    (6): MaxPool2d(kernel_size=(2, 2), stride=(2, 2), padding=0, dilation=1, ceil_mode=False)
    (7): Dropout(p=0.4, inplace=False)
  )
  (layer3): Sequential(
    (0): Conv2d(48, 96, kernel_size=(3, 3), stride=(1, 1), padding=(1, 1))
    (1): ReLU()
    (2): BatchNorm2d(96, eps=1e-05, momentum=0.1, affine=True, track_running_stats=True)
    (3): Conv2d(96, 96, kernel_size=(3, 3), stride=(1, 1), padding=(1, 1))
    (4): ReLU()
    (5): BatchNorm2d(96, eps=1e-05, momentum=0.1, affine=True, track_running_stats=True)
    (6): MaxPool2d(kernel_size=(2, 2), stride=(2, 2), padding=0, dilation=1, ceil_mode=False)
    (7): Dropout(p=0.4, inplace=False)
  )
  (layer4): Sequential(
    (0): Conv2d(96, 192, kernel_size=(3, 3), stride=(1, 1), padding=(1, 1))
    (1): ReLU()
    (2): BatchNorm2d(192, eps=1e-05, momentum=0.1, affine=True, track_running_stats=True)
    (3): Conv2d(192, 192, kernel_size=(3, 3), stride=(1, 1), padding=(1, 1))
    (4): ReLU()
    (5): BatchNorm2d(192, eps=1e-05, momentum=0.1, affine=True, track_running_stats=True)
    (6): MaxPool2d(kernel_size=(2, 2), stride=(2, 2), padding=0, dilation=1, ceil_mode=False)
    (7): Dropout(p=0.4, inplace=False)
  )
  (flat): Flatten(start_dim=1, end_dim=-1)
  (fc1): Linear(in_features=6912, out_features=192, bias=True)
  (fc2): Linear(in_features=192, out_features=96, bias=True)
  (last2): Linear(in_features=96, out_features=48, bias=True)
  (last): ModuleDict(
    (FER): Linear(in_features=48, out_features=7, bias=True)
    (AU): Linear(in_features=48, out_features=12, bias=True)
    (AV): Linear(in_features=48, out_features=2, bias=True)
  )
)
2024-03-04 23:23:07,584 INFO:213
2024-03-04 23:23:07,584 INFO:====================== FER =======================
2024-03-04 23:23:07,585 INFO:Incremental class: Old valid output dimension: 0
2024-03-04 23:23:07,586 INFO:Incremental class: New Valid output dimension: 7
2024-03-04 23:23:07,586 INFO:Epoch:0
2024-03-04 23:23:07,587 INFO:Itr		Time		  Data		  Loss		Acc
2024-03-04 23:23:55,177 INFO:got args, entered main
2024-03-04 23:23:59,147 INFO:Loaded AffWild2 for ALLDATA
2024-03-04 23:23:59,148 INFO:------------------------------------------------------------
2024-03-04 23:23:59,149 INFO:Task order: ['FER', 'AV', 'AU']
2024-03-04 23:23:59,162 INFO:Net(
  (layer1): Sequential(
    (0): Conv2d(3, 24, kernel_size=(3, 3), stride=(1, 1), padding=(1, 1))
    (1): ReLU()
    (2): BatchNorm2d(24, eps=1e-05, momentum=0.1, affine=True, track_running_stats=True)
    (3): Conv2d(24, 24, kernel_size=(3, 3), stride=(1, 1), padding=(1, 1))
    (4): ReLU()
    (5): BatchNorm2d(24, eps=1e-05, momentum=0.1, affine=True, track_running_stats=True)
    (6): MaxPool2d(kernel_size=(2, 2), stride=(2, 2), padding=0, dilation=1, ceil_mode=False)
    (7): Dropout(p=0.4, inplace=False)
  )
  (layer2): Sequential(
    (0): Conv2d(24, 48, kernel_size=(3, 3), stride=(1, 1), padding=(1, 1))
    (1): ReLU()
    (2): BatchNorm2d(48, eps=1e-05, momentum=0.1, affine=True, track_running_stats=True)
    (3): Conv2d(48, 48, kernel_size=(3, 3), stride=(1, 1), padding=(1, 1))
    (4): ReLU()
    (5): BatchNorm2d(48, eps=1e-05, momentum=0.1, affine=True, track_running_stats=True)
    (6): MaxPool2d(kernel_size=(2, 2), stride=(2, 2), padding=0, dilation=1, ceil_mode=False)
    (7): Dropout(p=0.4, inplace=False)
  )
  (layer3): Sequential(
    (0): Conv2d(48, 96, kernel_size=(3, 3), stride=(1, 1), padding=(1, 1))
    (1): ReLU()
    (2): BatchNorm2d(96, eps=1e-05, momentum=0.1, affine=True, track_running_stats=True)
    (3): Conv2d(96, 96, kernel_size=(3, 3), stride=(1, 1), padding=(1, 1))
    (4): ReLU()
    (5): BatchNorm2d(96, eps=1e-05, momentum=0.1, affine=True, track_running_stats=True)
    (6): MaxPool2d(kernel_size=(2, 2), stride=(2, 2), padding=0, dilation=1, ceil_mode=False)
    (7): Dropout(p=0.4, inplace=False)
  )
  (layer4): Sequential(
    (0): Conv2d(96, 192, kernel_size=(3, 3), stride=(1, 1), padding=(1, 1))
    (1): ReLU()
    (2): BatchNorm2d(192, eps=1e-05, momentum=0.1, affine=True, track_running_stats=True)
    (3): Conv2d(192, 192, kernel_size=(3, 3), stride=(1, 1), padding=(1, 1))
    (4): ReLU()
    (5): BatchNorm2d(192, eps=1e-05, momentum=0.1, affine=True, track_running_stats=True)
    (6): MaxPool2d(kernel_size=(2, 2), stride=(2, 2), padding=0, dilation=1, ceil_mode=False)
    (7): Dropout(p=0.4, inplace=False)
  )
  (flat): Flatten(start_dim=1, end_dim=-1)
  (fc1): Linear(in_features=6912, out_features=192, bias=True)
  (fc2): Linear(in_features=192, out_features=96, bias=True)
  (last2): Linear(in_features=96, out_features=48, bias=True)
  (last): ModuleDict(
    (FER): Linear(in_features=48, out_features=7, bias=True)
    (AU): Linear(in_features=48, out_features=12, bias=True)
    (AV): Linear(in_features=48, out_features=2, bias=True)
  )
)
2024-03-04 23:23:59,162 INFO:213
2024-03-04 23:23:59,162 INFO:====================== FER =======================
2024-03-04 23:23:59,163 INFO:Incremental class: Old valid output dimension: 0
2024-03-04 23:23:59,163 INFO:Incremental class: New Valid output dimension: 7
2024-03-04 23:23:59,164 INFO:Epoch:0
2024-03-04 23:23:59,164 INFO:Itr		Time		  Data		  Loss		Acc
2024-03-04 23:24:20,583 INFO:got args, entered main
2024-03-04 23:24:24,593 INFO:Loaded AffWild2 for ALLDATA
2024-03-04 23:24:24,594 INFO:------------------------------------------------------------
2024-03-04 23:24:24,595 INFO:Task order: ['AU', 'AV', 'FER']
2024-03-04 23:24:24,618 INFO:Net(
  (layer1): Sequential(
    (0): Conv2d(3, 24, kernel_size=(3, 3), stride=(1, 1), padding=(1, 1))
    (1): ReLU()
    (2): BatchNorm2d(24, eps=1e-05, momentum=0.1, affine=True, track_running_stats=True)
    (3): Conv2d(24, 24, kernel_size=(3, 3), stride=(1, 1), padding=(1, 1))
    (4): ReLU()
    (5): BatchNorm2d(24, eps=1e-05, momentum=0.1, affine=True, track_running_stats=True)
    (6): MaxPool2d(kernel_size=(2, 2), stride=(2, 2), padding=0, dilation=1, ceil_mode=False)
    (7): Dropout(p=0.4, inplace=False)
  )
  (layer2): Sequential(
    (0): Conv2d(24, 48, kernel_size=(3, 3), stride=(1, 1), padding=(1, 1))
    (1): ReLU()
    (2): BatchNorm2d(48, eps=1e-05, momentum=0.1, affine=True, track_running_stats=True)
    (3): Conv2d(48, 48, kernel_size=(3, 3), stride=(1, 1), padding=(1, 1))
    (4): ReLU()
    (5): BatchNorm2d(48, eps=1e-05, momentum=0.1, affine=True, track_running_stats=True)
    (6): MaxPool2d(kernel_size=(2, 2), stride=(2, 2), padding=0, dilation=1, ceil_mode=False)
    (7): Dropout(p=0.4, inplace=False)
  )
  (layer3): Sequential(
    (0): Conv2d(48, 96, kernel_size=(3, 3), stride=(1, 1), padding=(1, 1))
    (1): ReLU()
    (2): BatchNorm2d(96, eps=1e-05, momentum=0.1, affine=True, track_running_stats=True)
    (3): Conv2d(96, 96, kernel_size=(3, 3), stride=(1, 1), padding=(1, 1))
    (4): ReLU()
    (5): BatchNorm2d(96, eps=1e-05, momentum=0.1, affine=True, track_running_stats=True)
    (6): MaxPool2d(kernel_size=(2, 2), stride=(2, 2), padding=0, dilation=1, ceil_mode=False)
    (7): Dropout(p=0.4, inplace=False)
  )
  (layer4): Sequential(
    (0): Conv2d(96, 192, kernel_size=(3, 3), stride=(1, 1), padding=(1, 1))
    (1): ReLU()
    (2): BatchNorm2d(192, eps=1e-05, momentum=0.1, affine=True, track_running_stats=True)
    (3): Conv2d(192, 192, kernel_size=(3, 3), stride=(1, 1), padding=(1, 1))
    (4): ReLU()
    (5): BatchNorm2d(192, eps=1e-05, momentum=0.1, affine=True, track_running_stats=True)
    (6): MaxPool2d(kernel_size=(2, 2), stride=(2, 2), padding=0, dilation=1, ceil_mode=False)
    (7): Dropout(p=0.4, inplace=False)
  )
  (flat): Flatten(start_dim=1, end_dim=-1)
  (fc1): Linear(in_features=6912, out_features=192, bias=True)
  (fc2): Linear(in_features=192, out_features=96, bias=True)
  (last2): Linear(in_features=96, out_features=48, bias=True)
  (last): ModuleDict(
    (FER): Linear(in_features=48, out_features=7, bias=True)
    (AU): Linear(in_features=48, out_features=12, bias=True)
    (AV): Linear(in_features=48, out_features=2, bias=True)
  )
)
2024-03-04 23:24:24,618 INFO:213
2024-03-04 23:24:24,618 INFO:====================== AU =======================
2024-03-04 23:24:24,619 INFO:Incremental class: Old valid output dimension: 0
2024-03-04 23:24:24,619 INFO:Incremental class: New Valid output dimension: 12
2024-03-04 23:24:24,620 INFO:Epoch:0
2024-03-04 23:24:24,621 INFO:Itr		Time		  Data		  Loss		F1
…
2024-03-12 03:30:30,356 INFO:Task order: ['AU', 'AV', 'FER']
2024-03-12 03:38:35,809 INFO:got args, entered main
2024-03-12 03:38:48,038 INFO:Loaded AffWild2 for ALLDATA
2024-03-12 03:38:48,040 INFO:------------------------------------------------------------
2024-03-12 03:38:48,041 INFO:Task order: ['AU', 'AV', 'FER']
2024-03-13 03:53:46,301 INFO:got args, entered main
2024-03-13 03:53:51,542 INFO:Loaded AffWild2 for ALLDATA
2024-03-13 03:53:51,543 INFO:------------------------------------------------------------
2024-03-13 03:53:51,543 INFO:Task order: ['AU', 'AV', 'FER']
2024-03-13 03:53:51,601 INFO:Net(
  (layer1): Sequential(
    (0): Conv2d(3, 24, kernel_size=(3, 3), stride=(1, 1), padding=(1, 1))
    (1): ReLU()
    (2): BatchNorm2d(24, eps=1e-05, momentum=0.1, affine=True, track_running_stats=True)
    (3): Conv2d(24, 24, kernel_size=(3, 3), stride=(1, 1), padding=(1, 1))
    (4): ReLU()
    (5): BatchNorm2d(24, eps=1e-05, momentum=0.1, affine=True, track_running_stats=True)
    (6): MaxPool2d(kernel_size=(2, 2), stride=(2, 2), padding=0, dilation=1, ceil_mode=False)
    (7): Dropout(p=0.4, inplace=False)
  )
  (layer2): Sequential(
    (0): Conv2d(24, 48, kernel_size=(3, 3), stride=(1, 1), padding=(1, 1))
    (1): ReLU()
    (2): BatchNorm2d(48, eps=1e-05, momentum=0.1, affine=True, track_running_stats=True)
    (3): Conv2d(48, 48, kernel_size=(3, 3), stride=(1, 1), padding=(1, 1))
    (4): ReLU()
    (5): BatchNorm2d(48, eps=1e-05, momentum=0.1, affine=True, track_running_stats=True)
    (6): MaxPool2d(kernel_size=(2, 2), stride=(2, 2), padding=0, dilation=1, ceil_mode=False)
    (7): Dropout(p=0.4, inplace=False)
  )
  (layer3): Sequential(
    (0): Conv2d(48, 96, kernel_size=(3, 3), stride=(1, 1), padding=(1, 1))
    (1): ReLU()
    (2): BatchNorm2d(96, eps=1e-05, momentum=0.1, affine=True, track_running_stats=True)
    (3): Conv2d(96, 96, kernel_size=(3, 3), stride=(1, 1), padding=(1, 1))
    (4): ReLU()
    (5): BatchNorm2d(96, eps=1e-05, momentum=0.1, affine=True, track_running_stats=True)
    (6): MaxPool2d(kernel_size=(2, 2), stride=(2, 2), padding=0, dilation=1, ceil_mode=False)
    (7): Dropout(p=0.4, inplace=False)
  )
  (layer4): Sequential(
    (0): Conv2d(96, 192, kernel_size=(3, 3), stride=(1, 1), padding=(1, 1))
    (1): ReLU()
    (2): BatchNorm2d(192, eps=1e-05, momentum=0.1, affine=True, track_running_stats=True)
    (3): Conv2d(192, 192, kernel_size=(3, 3), stride=(1, 1), padding=(1, 1))
    (4): ReLU()
    (5): BatchNorm2d(192, eps=1e-05, momentum=0.1, affine=True, track_running_stats=True)
    (6): MaxPool2d(kernel_size=(2, 2), stride=(2, 2), padding=0, dilation=1, ceil_mode=False)
    (7): Dropout(p=0.4, inplace=False)
  )
  (flat): Flatten(start_dim=1, end_dim=-1)
  (fc1): Linear(in_features=6912, out_features=192, bias=True)
  (fc2): Linear(in_features=192, out_features=96, bias=True)
  (last2): Linear(in_features=96, out_features=48, bias=True)
  (last): ModuleDict(
    (FER): Linear(in_features=48, out_features=7, bias=True)
    (AU): Linear(in_features=48, out_features=12, bias=True)
    (AV): Linear(in_features=48, out_features=2, bias=True)
  )
)
2024-03-13 03:53:51,602 INFO:213
2024-03-13 03:53:51,602 INFO:====================== AU =======================
2024-03-13 03:53:51,603 INFO:Incremental class: Old valid output dimension: 0
2024-03-13 03:53:51,603 INFO:Incremental class: New Valid output dimension: 12
2024-03-13 03:54:06,429 INFO:got args, entered main
2024-03-13 03:54:10,570 INFO:Loaded AffWild2 for ALLDATA
2024-03-13 03:54:10,571 INFO:------------------------------------------------------------
2024-03-13 03:54:10,572 INFO:Task order: ['AU', 'AV', 'FER']
2024-03-13 03:54:10,604 INFO:Net(
  (layer1): Sequential(
    (0): Conv2d(3, 24, kernel_size=(3, 3), stride=(1, 1), padding=(1, 1))
    (1): ReLU()
    (2): BatchNorm2d(24, eps=1e-05, momentum=0.1, affine=True, track_running_stats=True)
    (3): Conv2d(24, 24, kernel_size=(3, 3), stride=(1, 1), padding=(1, 1))
    (4): ReLU()
    (5): BatchNorm2d(24, eps=1e-05, momentum=0.1, affine=True, track_running_stats=True)
    (6): MaxPool2d(kernel_size=(2, 2), stride=(2, 2), padding=0, dilation=1, ceil_mode=False)
    (7): Dropout(p=0.4, inplace=False)
  )
  (layer2): Sequential(
    (0): Conv2d(24, 48, kernel_size=(3, 3), stride=(1, 1), padding=(1, 1))
    (1): ReLU()
    (2): BatchNorm2d(48, eps=1e-05, momentum=0.1, affine=True, track_running_stats=True)
    (3): Conv2d(48, 48, kernel_size=(3, 3), stride=(1, 1), padding=(1, 1))
    (4): ReLU()
    (5): BatchNorm2d(48, eps=1e-05, momentum=0.1, affine=True, track_running_stats=True)
    (6): MaxPool2d(kernel_size=(2, 2), stride=(2, 2), padding=0, dilation=1, ceil_mode=False)
    (7): Dropout(p=0.4, inplace=False)
  )
  (layer3): Sequential(
    (0): Conv2d(48, 96, kernel_size=(3, 3), stride=(1, 1), padding=(1, 1))
    (1): ReLU()
    (2): BatchNorm2d(96, eps=1e-05, momentum=0.1, affine=True, track_running_stats=True)
    (3): Conv2d(96, 96, kernel_size=(3, 3), stride=(1, 1), padding=(1, 1))
    (4): ReLU()
    (5): BatchNorm2d(96, eps=1e-05, momentum=0.1, affine=True, track_running_stats=True)
    (6): MaxPool2d(kernel_size=(2, 2), stride=(2, 2), padding=0, dilation=1, ceil_mode=False)
    (7): Dropout(p=0.4, inplace=False)
  )
  (layer4): Sequential(
    (0): Conv2d(96, 192, kernel_size=(3, 3), stride=(1, 1), padding=(1, 1))
    (1): ReLU()
    (2): BatchNorm2d(192, eps=1e-05, momentum=0.1, affine=True, track_running_stats=True)
    (3): Conv2d(192, 192, kernel_size=(3, 3), stride=(1, 1), padding=(1, 1))
    (4): ReLU()
    (5): BatchNorm2d(192, eps=1e-05, momentum=0.1, affine=True, track_running_stats=True)
    (6): MaxPool2d(kernel_size=(2, 2), stride=(2, 2), padding=0, dilation=1, ceil_mode=False)
    (7): Dropout(p=0.4, inplace=False)
  )
  (flat): Flatten(start_dim=1, end_dim=-1)
  (fc1): Linear(in_features=6912, out_features=192, bias=True)
  (fc2): Linear(in_features=192, out_features=96, bias=True)
  (last2): Linear(in_features=96, out_features=48, bias=True)
  (last): ModuleDict(
    (FER): Linear(in_features=48, out_features=7, bias=True)
    (AU): Linear(in_features=48, out_features=12, bias=True)
    (AV): Linear(in_features=48, out_features=2, bias=True)
  )
)
2024-03-13 03:54:10,605 INFO:213
2024-03-13 03:54:10,605 INFO:====================== AU =======================
2024-03-13 03:54:10,606 INFO:Incremental class: Old valid output dimension: 0
2024-03-13 03:54:10,606 INFO:Incremental class: New Valid output dimension: 12
2024-03-13 03:54:26,586 INFO:got args, entered main
2024-03-13 03:54:30,359 INFO:Loaded AffWild2 for ALLDATA
2024-03-13 03:54:30,360 INFO:------------------------------------------------------------
2024-03-13 03:54:30,360 INFO:Task order: ['AU', 'AV', 'FER']
2024-03-13 03:54:30,390 INFO:Net(
  (layer1): Sequential(
    (0): Conv2d(3, 24, kernel_size=(3, 3), stride=(1, 1), padding=(1, 1))
    (1): ReLU()
    (2): BatchNorm2d(24, eps=1e-05, momentum=0.1, affine=True, track_running_stats=True)
    (3): Conv2d(24, 24, kernel_size=(3, 3), stride=(1, 1), padding=(1, 1))
    (4): ReLU()
    (5): BatchNorm2d(24, eps=1e-05, momentum=0.1, affine=True, track_running_stats=True)
    (6): MaxPool2d(kernel_size=(2, 2), stride=(2, 2), padding=0, dilation=1, ceil_mode=False)
    (7): Dropout(p=0.4, inplace=False)
  )
  (layer2): Sequential(
    (0): Conv2d(24, 48, kernel_size=(3, 3), stride=(1, 1), padding=(1, 1))
    (1): ReLU()
    (2): BatchNorm2d(48, eps=1e-05, momentum=0.1, affine=True, track_running_stats=True)
    (3): Conv2d(48, 48, kernel_size=(3, 3), stride=(1, 1), padding=(1, 1))
    (4): ReLU()
    (5): BatchNorm2d(48, eps=1e-05, momentum=0.1, affine=True, track_running_stats=True)
    (6): MaxPool2d(kernel_size=(2, 2), stride=(2, 2), padding=0, dilation=1, ceil_mode=False)
    (7): Dropout(p=0.4, inplace=False)
  )
  (layer3): Sequential(
    (0): Conv2d(48, 96, kernel_size=(3, 3), stride=(1, 1), padding=(1, 1))
    (1): ReLU()
    (2): BatchNorm2d(96, eps=1e-05, momentum=0.1, affine=True, track_running_stats=True)
    (3): Conv2d(96, 96, kernel_size=(3, 3), stride=(1, 1), padding=(1, 1))
    (4): ReLU()
    (5): BatchNorm2d(96, eps=1e-05, momentum=0.1, affine=True, track_running_stats=True)
    (6): MaxPool2d(kernel_size=(2, 2), stride=(2, 2), padding=0, dilation=1, ceil_mode=False)
    (7): Dropout(p=0.4, inplace=False)
  )
  (layer4): Sequential(
    (0): Conv2d(96, 192, kernel_size=(3, 3), stride=(1, 1), padding=(1, 1))
    (1): ReLU()
    (2): BatchNorm2d(192, eps=1e-05, momentum=0.1, affine=True, track_running_stats=True)
    (3): Conv2d(192, 192, kernel_size=(3, 3), stride=(1, 1), padding=(1, 1))
    (4): ReLU()
    (5): BatchNorm2d(192, eps=1e-05, momentum=0.1, affine=True, track_running_stats=True)
    (6): MaxPool2d(kernel_size=(2, 2), stride=(2, 2), padding=0, dilation=1, ceil_mode=False)
    (7): Dropout(p=0.4, inplace=False)
  )
  (flat): Flatten(start_dim=1, end_dim=-1)
  (fc1): Linear(in_features=6912, out_features=192, bias=True)
  (fc2): Linear(in_features=192, out_features=96, bias=True)
  (last2): Linear(in_features=96, out_features=48, bias=True)
  (last): ModuleDict(
    (FER): Linear(in_features=48, out_features=7, bias=True)
    (AU): Linear(in_features=48, out_features=12, bias=True)
    (AV): Linear(in_features=48, out_features=2, bias=True)
  )
)
2024-03-13 03:54:30,391 INFO:213
2024-03-13 03:54:30,391 INFO:====================== AU =======================
2024-03-13 03:54:30,391 INFO:Incremental class: Old valid output dimension: 0
2024-03-13 03:54:30,391 INFO:Incremental class: New Valid output dimension: 12
2024-03-15 01:05:55,980 INFO:got args, entered main
2024-03-15 01:06:00,793 INFO:Loaded AffWild2 for ALLDATA
2024-03-15 01:06:00,794 INFO:------------------------------------------------------------
2024-03-15 01:06:00,794 INFO:Task order: ['AU', 'AV', 'FER']
2024-03-15 01:06:00,886 INFO:Net(
  (layer1): Sequential(
    (0): Conv2d(3, 24, kernel_size=(3, 3), stride=(1, 1), padding=(1, 1))
    (1): ReLU()
    (2): BatchNorm2d(24, eps=1e-05, momentum=0.1, affine=True, track_running_stats=True)
    (3): Conv2d(24, 24, kernel_size=(3, 3), stride=(1, 1), padding=(1, 1))
    (4): ReLU()
    (5): BatchNorm2d(24, eps=1e-05, momentum=0.1, affine=True, track_running_stats=True)
    (6): MaxPool2d(kernel_size=(2, 2), stride=(2, 2), padding=0, dilation=1, ceil_mode=False)
    (7): Dropout(p=0.4, inplace=False)
  )
  (layer2): Sequential(
    (0): Conv2d(24, 48, kernel_size=(3, 3), stride=(1, 1), padding=(1, 1))
    (1): ReLU()
    (2): BatchNorm2d(48, eps=1e-05, momentum=0.1, affine=True, track_running_stats=True)
    (3): Conv2d(48, 48, kernel_size=(3, 3), stride=(1, 1), padding=(1, 1))
    (4): ReLU()
    (5): BatchNorm2d(48, eps=1e-05, momentum=0.1, affine=True, track_running_stats=True)
    (6): MaxPool2d(kernel_size=(2, 2), stride=(2, 2), padding=0, dilation=1, ceil_mode=False)
    (7): Dropout(p=0.4, inplace=False)
  )
  (layer3): Sequential(
    (0): Conv2d(48, 96, kernel_size=(3, 3), stride=(1, 1), padding=(1, 1))
    (1): ReLU()
    (2): BatchNorm2d(96, eps=1e-05, momentum=0.1, affine=True, track_running_stats=True)
    (3): Conv2d(96, 96, kernel_size=(3, 3), stride=(1, 1), padding=(1, 1))
    (4): ReLU()
    (5): BatchNorm2d(96, eps=1e-05, momentum=0.1, affine=True, track_running_stats=True)
    (6): MaxPool2d(kernel_size=(2, 2), stride=(2, 2), padding=0, dilation=1, ceil_mode=False)
    (7): Dropout(p=0.4, inplace=False)
  )
  (layer4): Sequential(
    (0): Conv2d(96, 192, kernel_size=(3, 3), stride=(1, 1), padding=(1, 1))
    (1): ReLU()
    (2): BatchNorm2d(192, eps=1e-05, momentum=0.1, affine=True, track_running_stats=True)
    (3): Conv2d(192, 192, kernel_size=(3, 3), stride=(1, 1), padding=(1, 1))
    (4): ReLU()
    (5): BatchNorm2d(192, eps=1e-05, momentum=0.1, affine=True, track_running_stats=True)
    (6): MaxPool2d(kernel_size=(2, 2), stride=(2, 2), padding=0, dilation=1, ceil_mode=False)
    (7): Dropout(p=0.4, inplace=False)
  )
  (flat): Flatten(start_dim=1, end_dim=-1)
  (fc1): Linear(in_features=6912, out_features=192, bias=True)
  (fc2): Linear(in_features=192, out_features=96, bias=True)
  (last2): Linear(in_features=96, out_features=48, bias=True)
  (last): ModuleDict(
    (FER): Linear(in_features=48, out_features=7, bias=True)
    (AU): Linear(in_features=48, out_features=12, bias=True)
    (AV): Linear(in_features=48, out_features=2, bias=True)
  )
)
2024-03-15 01:06:00,886 INFO:213
2024-03-15 01:06:00,886 INFO:====================== AU =======================
2024-03-15 01:06:00,887 INFO:Incremental class: Old valid output dimension: 0
2024-03-15 01:06:00,887 INFO:Incremental class: New Valid output dimension: 12
2024-03-15 01:06:31,998 INFO:got args, entered main
2024-03-15 01:06:35,436 INFO:Loaded AffWild2 for ALLDATA
2024-03-15 01:06:35,437 INFO:------------------------------------------------------------
2024-03-15 01:06:35,437 INFO:Task order: ['AU', 'AV', 'FER']
2024-03-15 01:06:35,465 INFO:Net(
  (layer1): Sequential(
    (0): Conv2d(3, 24, kernel_size=(3, 3), stride=(1, 1), padding=(1, 1))
    (1): ReLU()
    (2): BatchNorm2d(24, eps=1e-05, momentum=0.1, affine=True, track_running_stats=True)
    (3): Conv2d(24, 24, kernel_size=(3, 3), stride=(1, 1), padding=(1, 1))
    (4): ReLU()
    (5): BatchNorm2d(24, eps=1e-05, momentum=0.1, affine=True, track_running_stats=True)
    (6): MaxPool2d(kernel_size=(2, 2), stride=(2, 2), padding=0, dilation=1, ceil_mode=False)
    (7): Dropout(p=0.4, inplace=False)
  )
  (layer2): Sequential(
    (0): Conv2d(24, 48, kernel_size=(3, 3), stride=(1, 1), padding=(1, 1))
    (1): ReLU()
    (2): BatchNorm2d(48, eps=1e-05, momentum=0.1, affine=True, track_running_stats=True)
    (3): Conv2d(48, 48, kernel_size=(3, 3), stride=(1, 1), padding=(1, 1))
    (4): ReLU()
    (5): BatchNorm2d(48, eps=1e-05, momentum=0.1, affine=True, track_running_stats=True)
    (6): MaxPool2d(kernel_size=(2, 2), stride=(2, 2), padding=0, dilation=1, ceil_mode=False)
    (7): Dropout(p=0.4, inplace=False)
  )
  (layer3): Sequential(
    (0): Conv2d(48, 96, kernel_size=(3, 3), stride=(1, 1), padding=(1, 1))
    (1): ReLU()
    (2): BatchNorm2d(96, eps=1e-05, momentum=0.1, affine=True, track_running_stats=True)
    (3): Conv2d(96, 96, kernel_size=(3, 3), stride=(1, 1), padding=(1, 1))
    (4): ReLU()
    (5): BatchNorm2d(96, eps=1e-05, momentum=0.1, affine=True, track_running_stats=True)
    (6): MaxPool2d(kernel_size=(2, 2), stride=(2, 2), padding=0, dilation=1, ceil_mode=False)
    (7): Dropout(p=0.4, inplace=False)
  )
  (layer4): Sequential(
    (0): Conv2d(96, 192, kernel_size=(3, 3), stride=(1, 1), padding=(1, 1))
    (1): ReLU()
    (2): BatchNorm2d(192, eps=1e-05, momentum=0.1, affine=True, track_running_stats=True)
    (3): Conv2d(192, 192, kernel_size=(3, 3), stride=(1, 1), padding=(1, 1))
    (4): ReLU()
    (5): BatchNorm2d(192, eps=1e-05, momentum=0.1, affine=True, track_running_stats=True)
    (6): MaxPool2d(kernel_size=(2, 2), stride=(2, 2), padding=0, dilation=1, ceil_mode=False)
    (7): Dropout(p=0.4, inplace=False)
  )
  (flat): Flatten(start_dim=1, end_dim=-1)
  (fc1): Linear(in_features=6912, out_features=192, bias=True)
  (fc2): Linear(in_features=192, out_features=96, bias=True)
  (last2): Linear(in_features=96, out_features=48, bias=True)
  (last): ModuleDict(
    (FER): Linear(in_features=48, out_features=7, bias=True)
    (AU): Linear(in_features=48, out_features=12, bias=True)
    (AV): Linear(in_features=48, out_features=2, bias=True)
  )
)
2024-03-15 01:06:35,465 INFO:213
2024-03-15 01:06:35,466 INFO:====================== AU =======================
2024-03-15 01:06:35,466 INFO:Incremental class: Old valid output dimension: 0
2024-03-15 01:06:35,467 INFO:Incremental class: New Valid output dimension: 12
2024-03-15 01:08:11,245 INFO:got args, entered main
2024-03-15 01:08:14,851 INFO:Loaded AffWild2 for ALLDATA
2024-03-15 01:08:14,851 INFO:------------------------------------------------------------
2024-03-15 01:08:14,852 INFO:Task order: ['AU', 'AV', 'FER']
2024-03-15 01:08:14,878 INFO:Net(
  (layer1): Sequential(
    (0): Conv2d(3, 24, kernel_size=(3, 3), stride=(1, 1), padding=(1, 1))
    (1): ReLU()
    (2): BatchNorm2d(24, eps=1e-05, momentum=0.1, affine=True, track_running_stats=True)
    (3): Conv2d(24, 24, kernel_size=(3, 3), stride=(1, 1), padding=(1, 1))
    (4): ReLU()
    (5): BatchNorm2d(24, eps=1e-05, momentum=0.1, affine=True, track_running_stats=True)
    (6): MaxPool2d(kernel_size=(2, 2), stride=(2, 2), padding=0, dilation=1, ceil_mode=False)
    (7): Dropout(p=0.4, inplace=False)
  )
  (layer2): Sequential(
    (0): Conv2d(24, 48, kernel_size=(3, 3), stride=(1, 1), padding=(1, 1))
    (1): ReLU()
    (2): BatchNorm2d(48, eps=1e-05, momentum=0.1, affine=True, track_running_stats=True)
    (3): Conv2d(48, 48, kernel_size=(3, 3), stride=(1, 1), padding=(1, 1))
    (4): ReLU()
    (5): BatchNorm2d(48, eps=1e-05, momentum=0.1, affine=True, track_running_stats=True)
    (6): MaxPool2d(kernel_size=(2, 2), stride=(2, 2), padding=0, dilation=1, ceil_mode=False)
    (7): Dropout(p=0.4, inplace=False)
  )
  (layer3): Sequential(
    (0): Conv2d(48, 96, kernel_size=(3, 3), stride=(1, 1), padding=(1, 1))
    (1): ReLU()
    (2): BatchNorm2d(96, eps=1e-05, momentum=0.1, affine=True, track_running_stats=True)
    (3): Conv2d(96, 96, kernel_size=(3, 3), stride=(1, 1), padding=(1, 1))
    (4): ReLU()
    (5): BatchNorm2d(96, eps=1e-05, momentum=0.1, affine=True, track_running_stats=True)
    (6): MaxPool2d(kernel_size=(2, 2), stride=(2, 2), padding=0, dilation=1, ceil_mode=False)
    (7): Dropout(p=0.4, inplace=False)
  )
  (layer4): Sequential(
    (0): Conv2d(96, 192, kernel_size=(3, 3), stride=(1, 1), padding=(1, 1))
    (1): ReLU()
    (2): BatchNorm2d(192, eps=1e-05, momentum=0.1, affine=True, track_running_stats=True)
    (3): Conv2d(192, 192, kernel_size=(3, 3), stride=(1, 1), padding=(1, 1))
    (4): ReLU()
    (5): BatchNorm2d(192, eps=1e-05, momentum=0.1, affine=True, track_running_stats=True)
    (6): MaxPool2d(kernel_size=(2, 2), stride=(2, 2), padding=0, dilation=1, ceil_mode=False)
    (7): Dropout(p=0.4, inplace=False)
  )
  (flat): Flatten(start_dim=1, end_dim=-1)
  (fc1): Linear(in_features=6912, out_features=192, bias=True)
  (fc2): Linear(in_features=192, out_features=96, bias=True)
  (last2): Linear(in_features=96, out_features=48, bias=True)
  (last): ModuleDict(
    (FER): Linear(in_features=48, out_features=7, bias=True)
    (AU): Linear(in_features=48, out_features=12, bias=True)
    (AV): Linear(in_features=48, out_features=2, bias=True)
  )
)
2024-03-15 01:08:14,878 INFO:213
2024-03-15 01:08:14,879 INFO:====================== AU =======================
2024-03-15 01:08:14,879 INFO:Incremental class: Old valid output dimension: 0
2024-03-15 01:08:14,880 INFO:Incremental class: New Valid output dimension: 12
2024-03-15 01:08:44,322 INFO:got args, entered main
2024-03-15 01:08:47,979 INFO:Loaded AffWild2 for ALLDATA
2024-03-15 01:08:47,980 INFO:------------------------------------------------------------
2024-03-15 01:08:47,980 INFO:Task order: ['AU', 'AV', 'FER']
2024-03-15 01:08:48,009 INFO:Net(
  (layer1): Sequential(
    (0): Conv2d(3, 24, kernel_size=(3, 3), stride=(1, 1), padding=(1, 1))
    (1): ReLU()
    (2): BatchNorm2d(24, eps=1e-05, momentum=0.1, affine=True, track_running_stats=True)
    (3): Conv2d(24, 24, kernel_size=(3, 3), stride=(1, 1), padding=(1, 1))
    (4): ReLU()
    (5): BatchNorm2d(24, eps=1e-05, momentum=0.1, affine=True, track_running_stats=True)
    (6): MaxPool2d(kernel_size=(2, 2), stride=(2, 2), padding=0, dilation=1, ceil_mode=False)
    (7): Dropout(p=0.4, inplace=False)
  )
  (layer2): Sequential(
    (0): Conv2d(24, 48, kernel_size=(3, 3), stride=(1, 1), padding=(1, 1))
    (1): ReLU()
    (2): BatchNorm2d(48, eps=1e-05, momentum=0.1, affine=True, track_running_stats=True)
    (3): Conv2d(48, 48, kernel_size=(3, 3), stride=(1, 1), padding=(1, 1))
    (4): ReLU()
    (5): BatchNorm2d(48, eps=1e-05, momentum=0.1, affine=True, track_running_stats=True)
    (6): MaxPool2d(kernel_size=(2, 2), stride=(2, 2), padding=0, dilation=1, ceil_mode=False)
    (7): Dropout(p=0.4, inplace=False)
  )
  (layer3): Sequential(
    (0): Conv2d(48, 96, kernel_size=(3, 3), stride=(1, 1), padding=(1, 1))
    (1): ReLU()
    (2): BatchNorm2d(96, eps=1e-05, momentum=0.1, affine=True, track_running_stats=True)
    (3): Conv2d(96, 96, kernel_size=(3, 3), stride=(1, 1), padding=(1, 1))
    (4): ReLU()
    (5): BatchNorm2d(96, eps=1e-05, momentum=0.1, affine=True, track_running_stats=True)
    (6): MaxPool2d(kernel_size=(2, 2), stride=(2, 2), padding=0, dilation=1, ceil_mode=False)
    (7): Dropout(p=0.4, inplace=False)
  )
  (layer4): Sequential(
    (0): Conv2d(96, 192, kernel_size=(3, 3), stride=(1, 1), padding=(1, 1))
    (1): ReLU()
    (2): BatchNorm2d(192, eps=1e-05, momentum=0.1, affine=True, track_running_stats=True)
    (3): Conv2d(192, 192, kernel_size=(3, 3), stride=(1, 1), padding=(1, 1))
    (4): ReLU()
    (5): BatchNorm2d(192, eps=1e-05, momentum=0.1, affine=True, track_running_stats=True)
    (6): MaxPool2d(kernel_size=(2, 2), stride=(2, 2), padding=0, dilation=1, ceil_mode=False)
    (7): Dropout(p=0.4, inplace=False)
  )
  (flat): Flatten(start_dim=1, end_dim=-1)
  (fc1): Linear(in_features=6912, out_features=192, bias=True)
  (fc2): Linear(in_features=192, out_features=96, bias=True)
  (last2): Linear(in_features=96, out_features=48, bias=True)
  (last): ModuleDict(
    (FER): Linear(in_features=48, out_features=7, bias=True)
    (AU): Linear(in_features=48, out_features=12, bias=True)
    (AV): Linear(in_features=48, out_features=2, bias=True)
  )
)
2024-03-15 01:08:48,010 INFO:213
2024-03-15 01:08:48,010 INFO:====================== AU =======================
2024-03-15 01:08:48,010 INFO:Incremental class: Old valid output dimension: 0
…
    (2): BatchNorm2d(24, eps=1e-05, momentum=0.1, affine=True, track_running_stats=True)
    (3): Conv2d(24, 24, kernel_size=(3, 3), stride=(1, 1), padding=(1, 1))
    (4): ReLU()
    (5): BatchNorm2d(24, eps=1e-05, momentum=0.1, affine=True, track_running_stats=True)
    (6): MaxPool2d(kernel_size=(2, 2), stride=(2, 2), padding=0, dilation=1, ceil_mode=False)
    (7): Dropout(p=0.4, inplace=False)
  )
  (layer2): Sequential(
    (0): Conv2d(24, 48, kernel_size=(3, 3), stride=(1, 1), padding=(1, 1))
    (1): ReLU()
    (2): BatchNorm2d(48, eps=1e-05, momentum=0.1, affine=True, track_running_stats=True)
    (3): Conv2d(48, 48, kernel_size=(3, 3), stride=(1, 1), padding=(1, 1))
    (4): ReLU()
    (5): BatchNorm2d(48, eps=1e-05, momentum=0.1, affine=True, track_running_stats=True)
    (6): MaxPool2d(kernel_size=(2, 2), stride=(2, 2), padding=0, dilation=1, ceil_mode=False)
    (7): Dropout(p=0.4, inplace=False)
  )
  (layer3): Sequential(
    (0): Conv2d(48, 96, kernel_size=(3, 3), stride=(1, 1), padding=(1, 1))
    (1): ReLU()
    (2): BatchNorm2d(96, eps=1e-05, momentum=0.1, affine=True, track_running_stats=True)
    (3): Conv2d(96, 96, kernel_size=(3, 3), stride=(1, 1), padding=(1, 1))
    (4): ReLU()
    (5): BatchNorm2d(96, eps=1e-05, momentum=0.1, affine=True, track_running_stats=True)
    (6): MaxPool2d(kernel_size=(2, 2), stride=(2, 2), padding=0, dilation=1, ceil_mode=False)
    (7): Dropout(p=0.4, inplace=False)
  )
  (layer4): Sequential(
    (0): Conv2d(96, 192, kernel_size=(3, 3), stride=(1, 1), padding=(1, 1))
    (1): ReLU()
    (2): BatchNorm2d(192, eps=1e-05, momentum=0.1, affine=True, track_running_stats=True)
    (3): Conv2d(192, 192, kernel_size=(3, 3), stride=(1, 1), padding=(1, 1))
    (4): ReLU()
    (5): BatchNorm2d(192, eps=1e-05, momentum=0.1, affine=True, track_running_stats=True)
    (6): MaxPool2d(kernel_size=(2, 2), stride=(2, 2), padding=0, dilation=1, ceil_mode=False)
    (7): Dropout(p=0.4, inplace=False)
  )
  (flat): Flatten(start_dim=1, end_dim=-1)
  (fc1): Linear(in_features=6912, out_features=192, bias=True)
  (fc2): Linear(in_features=192, out_features=96, bias=True)
  (last2): Linear(in_features=96, out_features=48, bias=True)
  (last): ModuleDict(
    (FER): Linear(in_features=48, out_features=7, bias=True)
    (AU): Linear(in_features=48, out_features=12, bias=True)
    (AV): Linear(in_features=48, out_features=2, bias=True)
  )
)
2024-03-15 01:12:37,934 INFO:213
2024-03-15 01:12:37,934 INFO:====================== AU =======================
2024-03-15 01:12:37,935 INFO:Incremental class: Old valid output dimension: 0
2024-03-15 01:12:37,935 INFO:Incremental class: New Valid output dimension: 12
2024-03-15 01:13:46,385 INFO:got args, entered main
2024-03-15 01:13:49,950 INFO:Loaded AffWild2 for ALLDATA
2024-03-15 01:13:49,951 INFO:------------------------------------------------------------
2024-03-15 01:13:49,951 INFO:Task order: ['AU', 'AV', 'FER']
2024-03-15 01:13:49,980 INFO:Net(
  (layer1): Sequential(
    (0): Conv2d(3, 24, kernel_size=(3, 3), stride=(1, 1), padding=(1, 1))
    (1): ReLU()
    (2): BatchNorm2d(24, eps=1e-05, momentum=0.1, affine=True, track_running_stats=True)
    (3): Conv2d(24, 24, kernel_size=(3, 3), stride=(1, 1), padding=(1, 1))
    (4): ReLU()
    (5): BatchNorm2d(24, eps=1e-05, momentum=0.1, affine=True, track_running_stats=True)
    (6): MaxPool2d(kernel_size=(2, 2), stride=(2, 2), padding=0, dilation=1, ceil_mode=False)
    (7): Dropout(p=0.4, inplace=False)
  )
  (layer2): Sequential(
    (0): Conv2d(24, 48, kernel_size=(3, 3), stride=(1, 1), padding=(1, 1))
    (1): ReLU()
    (2): BatchNorm2d(48, eps=1e-05, momentum=0.1, affine=True, track_running_stats=True)
    (3): Conv2d(48, 48, kernel_size=(3, 3), stride=(1, 1), padding=(1, 1))
    (4): ReLU()
    (5): BatchNorm2d(48, eps=1e-05, momentum=0.1, affine=True, track_running_stats=True)
    (6): MaxPool2d(kernel_size=(2, 2), stride=(2, 2), padding=0, dilation=1, ceil_mode=False)
    (7): Dropout(p=0.4, inplace=False)
  )
  (layer3): Sequential(
    (0): Conv2d(48, 96, kernel_size=(3, 3), stride=(1, 1), padding=(1, 1))
    (1): ReLU()
    (2): BatchNorm2d(96, eps=1e-05, momentum=0.1, affine=True, track_running_stats=True)
    (3): Conv2d(96, 96, kernel_size=(3, 3), stride=(1, 1), padding=(1, 1))
    (4): ReLU()
    (5): BatchNorm2d(96, eps=1e-05, momentum=0.1, affine=True, track_running_stats=True)
    (6): MaxPool2d(kernel_size=(2, 2), stride=(2, 2), padding=0, dilation=1, ceil_mode=False)
    (7): Dropout(p=0.4, inplace=False)
  )
  (layer4): Sequential(
    (0): Conv2d(96, 192, kernel_size=(3, 3), stride=(1, 1), padding=(1, 1))
    (1): ReLU()
    (2): BatchNorm2d(192, eps=1e-05, momentum=0.1, affine=True, track_running_stats=True)
    (3): Conv2d(192, 192, kernel_size=(3, 3), stride=(1, 1), padding=(1, 1))
    (4): ReLU()
    (5): BatchNorm2d(192, eps=1e-05, momentum=0.1, affine=True, track_running_stats=True)
    (6): MaxPool2d(kernel_size=(2, 2), stride=(2, 2), padding=0, dilation=1, ceil_mode=False)
    (7): Dropout(p=0.4, inplace=False)
  )
  (flat): Flatten(start_dim=1, end_dim=-1)
  (fc1): Linear(in_features=6912, out_features=192, bias=True)
  (fc2): Linear(in_features=192, out_features=96, bias=True)
  (last2): Linear(in_features=96, out_features=48, bias=True)
  (last): ModuleDict(
    (FER): Linear(in_features=48, out_features=7, bias=True)
    (AU): Linear(in_features=48, out_features=12, bias=True)
    (AV): Linear(in_features=48, out_features=2, bias=True)
  )
)
2024-03-15 01:13:49,980 INFO:213
2024-03-15 01:13:49,981 INFO:====================== AU =======================
2024-03-15 01:13:49,981 INFO:Incremental class: Old valid output dimension: 0
2024-03-15 01:13:49,981 INFO:Incremental class: New Valid output dimension: 12
2024-03-16 01:17:55,365 INFO:got args, entered main
2024-03-16 01:18:00,218 INFO:Loaded AffWild2 for ALLDATA
2024-03-16 01:18:00,219 INFO:------------------------------------------------------------
2024-03-16 01:18:00,219 INFO:Task order: ['AU', 'AV', 'FER']
2024-03-16 01:18:00,285 INFO:Net(
  (layer1): Sequential(
    (0): Conv2d(3, 24, kernel_size=(3, 3), stride=(1, 1), padding=(1, 1))
    (1): ReLU()
    (2): BatchNorm2d(24, eps=1e-05, momentum=0.1, affine=True, track_running_stats=True)
    (3): Conv2d(24, 24, kernel_size=(3, 3), stride=(1, 1), padding=(1, 1))
    (4): ReLU()
    (5): BatchNorm2d(24, eps=1e-05, momentum=0.1, affine=True, track_running_stats=True)
    (6): MaxPool2d(kernel_size=(2, 2), stride=(2, 2), padding=0, dilation=1, ceil_mode=False)
    (7): Dropout(p=0.4, inplace=False)
  )
  (layer2): Sequential(
    (0): Conv2d(24, 48, kernel_size=(3, 3), stride=(1, 1), padding=(1, 1))
    (1): ReLU()
    (2): BatchNorm2d(48, eps=1e-05, momentum=0.1, affine=True, track_running_stats=True)
    (3): Conv2d(48, 48, kernel_size=(3, 3), stride=(1, 1), padding=(1, 1))
    (4): ReLU()
    (5): BatchNorm2d(48, eps=1e-05, momentum=0.1, affine=True, track_running_stats=True)
    (6): MaxPool2d(kernel_size=(2, 2), stride=(2, 2), padding=0, dilation=1, ceil_mode=False)
    (7): Dropout(p=0.4, inplace=False)
  )
  (layer3): Sequential(
    (0): Conv2d(48, 96, kernel_size=(3, 3), stride=(1, 1), padding=(1, 1))
    (1): ReLU()
    (2): BatchNorm2d(96, eps=1e-05, momentum=0.1, affine=True, track_running_stats=True)
    (3): Conv2d(96, 96, kernel_size=(3, 3), stride=(1, 1), padding=(1, 1))
    (4): ReLU()
    (5): BatchNorm2d(96, eps=1e-05, momentum=0.1, affine=True, track_running_stats=True)
    (6): MaxPool2d(kernel_size=(2, 2), stride=(2, 2), padding=0, dilation=1, ceil_mode=False)
    (7): Dropout(p=0.4, inplace=False)
  )
  (layer4): Sequential(
    (0): Conv2d(96, 192, kernel_size=(3, 3), stride=(1, 1), padding=(1, 1))
    (1): ReLU()
    (2): BatchNorm2d(192, eps=1e-05, momentum=0.1, affine=True, track_running_stats=True)
    (3): Conv2d(192, 192, kernel_size=(3, 3), stride=(1, 1), padding=(1, 1))
    (4): ReLU()
    (5): BatchNorm2d(192, eps=1e-05, momentum=0.1, affine=True, track_running_stats=True)
    (6): MaxPool2d(kernel_size=(2, 2), stride=(2, 2), padding=0, dilation=1, ceil_mode=False)
    (7): Dropout(p=0.4, inplace=False)
  )
  (flat): Flatten(start_dim=1, end_dim=-1)
  (fc1): Linear(in_features=6912, out_features=192, bias=True)
  (fc2): Linear(in_features=192, out_features=96, bias=True)
  (last2): Linear(in_features=96, out_features=48, bias=True)
  (last): ModuleDict(
    (FER): Linear(in_features=48, out_features=7, bias=True)
    (AU): Linear(in_features=48, out_features=12, bias=True)
    (AV): Linear(in_features=48, out_features=2, bias=True)
  )
)
2024-03-16 01:18:00,286 INFO:213
2024-03-16 01:18:00,286 INFO:====================== AU =======================
2024-03-16 01:18:00,286 INFO:Incremental class: Old valid output dimension: 0
2024-03-16 01:18:00,287 INFO:Incremental class: New Valid output dimension: 12
2024-03-16 01:35:46,171 INFO:got args, entered main
2024-03-16 01:35:49,851 INFO:Loaded AffWild2 for ALLDATA
2024-03-16 01:35:49,852 INFO:------------------------------------------------------------
2024-03-16 01:35:49,852 INFO:Task order: ['AU', 'AV', 'FER']
2024-03-16 01:35:49,878 INFO:Net(
  (layer1): Sequential(
    (0): Conv2d(3, 24, kernel_size=(3, 3), stride=(1, 1), padding=(1, 1))
    (1): ReLU()
    (2): BatchNorm2d(24, eps=1e-05, momentum=0.1, affine=True, track_running_stats=True)
    (3): Conv2d(24, 24, kernel_size=(3, 3), stride=(1, 1), padding=(1, 1))
    (4): ReLU()
    (5): BatchNorm2d(24, eps=1e-05, momentum=0.1, affine=True, track_running_stats=True)
    (6): MaxPool2d(kernel_size=(2, 2), stride=(2, 2), padding=0, dilation=1, ceil_mode=False)
    (7): Dropout(p=0.4, inplace=False)
  )
  (layer2): Sequential(
    (0): Conv2d(24, 48, kernel_size=(3, 3), stride=(1, 1), padding=(1, 1))
    (1): ReLU()
    (2): BatchNorm2d(48, eps=1e-05, momentum=0.1, affine=True, track_running_stats=True)
    (3): Conv2d(48, 48, kernel_size=(3, 3), stride=(1, 1), padding=(1, 1))
    (4): ReLU()
    (5): BatchNorm2d(48, eps=1e-05, momentum=0.1, affine=True, track_running_stats=True)
    (6): MaxPool2d(kernel_size=(2, 2), stride=(2, 2), padding=0, dilation=1, ceil_mode=False)
    (7): Dropout(p=0.4, inplace=False)
  )
  (layer3): Sequential(
    (0): Conv2d(48, 96, kernel_size=(3, 3), stride=(1, 1), padding=(1, 1))
    (1): ReLU()
    (2): BatchNorm2d(96, eps=1e-05, momentum=0.1, affine=True, track_running_stats=True)
    (3): Conv2d(96, 96, kernel_size=(3, 3), stride=(1, 1), padding=(1, 1))
    (4): ReLU()
    (5): BatchNorm2d(96, eps=1e-05, momentum=0.1, affine=True, track_running_stats=True)
    (6): MaxPool2d(kernel_size=(2, 2), stride=(2, 2), padding=0, dilation=1, ceil_mode=False)
    (7): Dropout(p=0.4, inplace=False)
  )
  (layer4): Sequential(
    (0): Conv2d(96, 192, kernel_size=(3, 3), stride=(1, 1), padding=(1, 1))
    (1): ReLU()
    (2): BatchNorm2d(192, eps=1e-05, momentum=0.1, affine=True, track_running_stats=True)
    (3): Conv2d(192, 192, kernel_size=(3, 3), stride=(1, 1), padding=(1, 1))
    (4): ReLU()
    (5): BatchNorm2d(192, eps=1e-05, momentum=0.1, affine=True, track_running_stats=True)
    (6): MaxPool2d(kernel_size=(2, 2), stride=(2, 2), padding=0, dilation=1, ceil_mode=False)
    (7): Dropout(p=0.4, inplace=False)
  )
  (flat): Flatten(start_dim=1, end_dim=-1)
  (fc1): Linear(in_features=6912, out_features=192, bias=True)
  (fc2): Linear(in_features=192, out_features=96, bias=True)
  (last2): Linear(in_features=96, out_features=48, bias=True)
  (last): ModuleDict(
    (FER): Linear(in_features=48, out_features=7, bias=True)
    (AU): Linear(in_features=48, out_features=12, bias=True)
    (AV): Linear(in_features=48, out_features=2, bias=True)
  )
)
2024-03-16 01:35:49,878 INFO:213
2024-03-16 01:35:49,878 INFO:====================== AU =======================
2024-03-16 01:35:49,879 INFO:Incremental class: Old valid output dimension: 0
2024-03-16 01:35:49,879 INFO:Incremental class: New Valid output dimension: 12
2024-03-16 01:36:10,034 INFO:got args, entered main
2024-03-16 01:36:13,593 INFO:Loaded AffWild2 for ALLDATA
2024-03-16 01:36:13,594 INFO:------------------------------------------------------------
2024-03-16 01:36:13,594 INFO:Task order: ['AU', 'AV', 'FER']
2024-03-16 01:36:13,620 INFO:Net(
  (layer1): Sequential(
    (0): Conv2d(3, 24, kernel_size=(3, 3), stride=(1, 1), padding=(1, 1))
    (1): ReLU()
    (2): BatchNorm2d(24, eps=1e-05, momentum=0.1, affine=True, track_running_stats=True)
    (3): Conv2d(24, 24, kernel_size=(3, 3), stride=(1, 1), padding=(1, 1))
    (4): ReLU()
    (5): BatchNorm2d(24, eps=1e-05, momentum=0.1, affine=True, track_running_stats=True)
    (6): MaxPool2d(kernel_size=(2, 2), stride=(2, 2), padding=0, dilation=1, ceil_mode=False)
    (7): Dropout(p=0.4, inplace=False)
  )
  (layer2): Sequential(
    (0): Conv2d(24, 48, kernel_size=(3, 3), stride=(1, 1), padding=(1, 1))
    (1): ReLU()
    (2): BatchNorm2d(48, eps=1e-05, momentum=0.1, affine=True, track_running_stats=True)
    (3): Conv2d(48, 48, kernel_size=(3, 3), stride=(1, 1), padding=(1, 1))
    (4): ReLU()
    (5): BatchNorm2d(48, eps=1e-05, momentum=0.1, affine=True, track_running_stats=True)
    (6): MaxPool2d(kernel_size=(2, 2), stride=(2, 2), padding=0, dilation=1, ceil_mode=False)
    (7): Dropout(p=0.4, inplace=False)
  )
  (layer3): Sequential(
    (0): Conv2d(48, 96, kernel_size=(3, 3), stride=(1, 1), padding=(1, 1))
    (1): ReLU()
    (2): BatchNorm2d(96, eps=1e-05, momentum=0.1, affine=True, track_running_stats=True)
    (3): Conv2d(96, 96, kernel_size=(3, 3), stride=(1, 1), padding=(1, 1))
    (4): ReLU()
    (5): BatchNorm2d(96, eps=1e-05, momentum=0.1, affine=True, track_running_stats=True)
    (6): MaxPool2d(kernel_size=(2, 2), stride=(2, 2), padding=0, dilation=1, ceil_mode=False)
    (7): Dropout(p=0.4, inplace=False)
  )
  (layer4): Sequential(
    (0): Conv2d(96, 192, kernel_size=(3, 3), stride=(1, 1), padding=(1, 1))
    (1): ReLU()
    (2): BatchNorm2d(192, eps=1e-05, momentum=0.1, affine=True, track_running_stats=True)
    (3): Conv2d(192, 192, kernel_size=(3, 3), stride=(1, 1), padding=(1, 1))
    (4): ReLU()
    (5): BatchNorm2d(192, eps=1e-05, momentum=0.1, affine=True, track_running_stats=True)
    (6): MaxPool2d(kernel_size=(2, 2), stride=(2, 2), padding=0, dilation=1, ceil_mode=False)
    (7): Dropout(p=0.4, inplace=False)
  )
  (flat): Flatten(start_dim=1, end_dim=-1)
  (fc1): Linear(in_features=6912, out_features=192, bias=True)
  (fc2): Linear(in_features=192, out_features=96, bias=True)
  (last2): Linear(in_features=96, out_features=48, bias=True)
  (last): ModuleDict(
    (FER): Linear(in_features=48, out_features=7, bias=True)
    (AU): Linear(in_features=48, out_features=12, bias=True)
    (AV): Linear(in_features=48, out_features=2, bias=True)
  )
)
2024-03-16 01:36:13,621 INFO:213
2024-03-16 01:36:13,621 INFO:====================== AU =======================
2024-03-16 01:36:13,622 INFO:Incremental class: Old valid output dimension: 0
2024-03-16 01:36:13,622 INFO:Incremental class: New Valid output dimension: 12
2024-03-16 01:36:57,245 INFO:got args, entered main
2024-03-16 01:37:01,151 INFO:Loaded AffWild2 for ALLDATA
2024-03-16 01:37:01,152 INFO:------------------------------------------------------------
2024-03-16 01:37:01,152 INFO:Task order: ['AU', 'AV', 'FER']
2024-03-16 01:37:01,178 INFO:Net(
  (layer1): Sequential(
    (0): Conv2d(3, 24, kernel_size=(3, 3), stride=(1, 1), padding=(1, 1))
    (1): ReLU()
    (2): BatchNorm2d(24, eps=1e-05, momentum=0.1, affine=True, track_running_stats=True)
    (3): Conv2d(24, 24, kernel_size=(3, 3), stride=(1, 1), padding=(1, 1))
    (4): ReLU()
    (5): BatchNorm2d(24, eps=1e-05, momentum=0.1, affine=True, track_running_stats=True)
    (6): MaxPool2d(kernel_size=(2, 2), stride=(2, 2), padding=0, dilation=1, ceil_mode=False)
    (7): Dropout(p=0.4, inplace=False)
  )
  (layer2): Sequential(
    (0): Conv2d(24, 48, kernel_size=(3, 3), stride=(1, 1), padding=(1, 1))
    (1): ReLU()
    (2): BatchNorm2d(48, eps=1e-05, momentum=0.1, affine=True, track_running_stats=True)
    (3): Conv2d(48, 48, kernel_size=(3, 3), stride=(1, 1), padding=(1, 1))
    (4): ReLU()
    (5): BatchNorm2d(48, eps=1e-05, momentum=0.1, affine=True, track_running_stats=True)
    (6): MaxPool2d(kernel_size=(2, 2), stride=(2, 2), padding=0, dilation=1, ceil_mode=False)
    (7): Dropout(p=0.4, inplace=False)
  )
  (layer3): Sequential(
    (0): Conv2d(48, 96, kernel_size=(3, 3), stride=(1, 1), padding=(1, 1))
    (1): ReLU()
    (2): BatchNorm2d(96, eps=1e-05, momentum=0.1, affine=True, track_running_stats=True)
    (3): Conv2d(96, 96, kernel_size=(3, 3), stride=(1, 1), padding=(1, 1))
    (4): ReLU()
    (5): BatchNorm2d(96, eps=1e-05, momentum=0.1, affine=True, track_running_stats=True)
    (6): MaxPool2d(kernel_size=(2, 2), stride=(2, 2), padding=0, dilation=1, ceil_mode=False)
    (7): Dropout(p=0.4, inplace=False)
  )
  (layer4): Sequential(
    (0): Conv2d(96, 192, kernel_size=(3, 3), stride=(1, 1), padding=(1, 1))
    (1): ReLU()
    (2): BatchNorm2d(192, eps=1e-05, momentum=0.1, affine=True, track_running_stats=True)
    (3): Conv2d(192, 192, kernel_size=(3, 3), stride=(1, 1), padding=(1, 1))
    (4): ReLU()
    (5): BatchNorm2d(192, eps=1e-05, momentum=0.1, affine=True, track_running_stats=True)
    (6): MaxPool2d(kernel_size=(2, 2), stride=(2, 2), padding=0, dilation=1, ceil_mode=False)
    (7): Dropout(p=0.4, inplace=False)
  )
  (flat): Flatten(start_dim=1, end_dim=-1)
  (fc1): Linear(in_features=6912, out_features=192, bias=True)
  (fc2): Linear(in_features=192, out_features=96, bias=True)
  (last2): Linear(in_features=96, out_features=48, bias=True)
  (last): ModuleDict(
    (FER): Linear(in_features=48, out_features=7, bias=True)
    (AU): Linear(in_features=48, out_features=12, bias=True)
    (AV): Linear(in_features=48, out_features=2, bias=True)
  )
)
2024-03-16 01:37:01,178 INFO:213
2024-03-16 01:37:01,178 INFO:====================== AU =======================
2024-03-16 01:37:01,180 INFO:Incremental class: Old valid output dimension: 0
2024-03-16 01:37:01,180 INFO:Incremental class: New Valid output dimension: 12
2024-03-16 01:37:37,268 INFO:got args, entered main
2024-03-16 01:37:40,898 INFO:Loaded AffWild2 for ALLDATA
2024-03-16 01:37:40,899 INFO:------------------------------------------------------------
2024-03-16 01:37:40,899 INFO:Task order: ['AU', 'AV', 'FER']
2024-03-16 01:37:40,929 INFO:Net(
  (layer1): Sequential(
    (0): Conv2d(3, 24, kernel_size=(3, 3), stride=(1, 1), padding=(1, 1))
    (1): ReLU()
    (2): BatchNorm2d(24, eps=1e-05, momentum=0.1, affine=True, track_running_stats=True)
    (3): Conv2d(24, 24, kernel_size=(3, 3), stride=(1, 1), padding=(1, 1))
    (4): ReLU()
    (5): BatchNorm2d(24, eps=1e-05, momentum=0.1, affine=True, track_running_stats=True)
    (6): MaxPool2d(kernel_size=(2, 2), stride=(2, 2), padding=0, dilation=1, ceil_mode=False)
    (7): Dropout(p=0.4, inplace=False)
  )
  (layer2): Sequential(
    (0): Conv2d(24, 48, kernel_size=(3, 3), stride=(1, 1), padding=(1, 1))
    (1): ReLU()
    (2): BatchNorm2d(48, eps=1e-05, momentum=0.1, affine=True, track_running_stats=True)
    (3): Conv2d(48, 48, kernel_size=(3, 3), stride=(1, 1), padding=(1, 1))
    (4): ReLU()
    (5): BatchNorm2d(48, eps=1e-05, momentum=0.1, affine=True, track_running_stats=True)
    (6): MaxPool2d(kernel_size=(2, 2), stride=(2, 2), padding=0, dilation=1, ceil_mode=False)
    (7): Dropout(p=0.4, inplace=False)
  )
  (layer3): Sequential(
    (0): Conv2d(48, 96, kernel_size=(3, 3), stride=(1, 1), padding=(1, 1))
    (1): ReLU()
    (2): BatchNorm2d(96, eps=1e-05, momentum=0.1, affine=True, track_running_stats=True)
    (3): Conv2d(96, 96, kernel_size=(3, 3), stride=(1, 1), padding=(1, 1))
    (4): ReLU()
    (5): BatchNorm2d(96, eps=1e-05, momentum=0.1, affine=True, track_running_stats=True)
    (6): MaxPool2d(kernel_size=(2, 2), stride=(2, 2), padding=0, dilation=1, ceil_mode=False)
    (7): Dropout(p=0.4, inplace=False)
  )
  (layer4): Sequential(
    (0): Conv2d(96, 192, kernel_size=(3, 3), stride=(1, 1), padding=(1, 1))
    (1): ReLU()
    (2): BatchNorm2d(192, eps=1e-05, momentum=0.1, affine=True, track_running_stats=True)
    (3): Conv2d(192, 192, kernel_size=(3, 3), stride=(1, 1), padding=(1, 1))
    (4): ReLU()
    (5): BatchNorm2d(192, eps=1e-05, momentum=0.1, affine=True, track_running_stats=True)
    (6): MaxPool2d(kernel_size=(2, 2), stride=(2, 2), padding=0, dilation=1, ceil_mode=False)
    (7): Dropout(p=0.4, inplace=False)
  )
  (flat): Flatten(start_dim=1, end_dim=-1)
  (fc1): Linear(in_features=6912, out_features=192, bias=True)
  (fc2): Linear(in_features=192, out_features=96, bias=True)
  (last2): Linear(in_features=96, out_features=48, bias=True)
  (last): ModuleDict(
    (FER): Linear(in_features=48, out_features=7, bias=True)
    (AU): Linear(in_features=48, out_features=12, bias=True)
    (AV): Linear(in_features=48, out_features=2, bias=True)
  )
)
2024-03-16 01:37:40,930 INFO:213
2024-03-16 01:37:40,930 INFO:====================== AU =======================
2024-03-16 01:37:40,930 INFO:Incremental class: Old valid output dimension: 0
2024-03-16 01:37:40,930 INFO:Incremental class: New Valid output dimension: 12
2024-03-16 01:40:08,080 INFO:got args, entered main
2024-03-16 01:40:11,854 INFO:Loaded AffWild2 for ALLDATA
2024-03-16 01:40:11,855 INFO:------------------------------------------------------------
2024-03-16 01:40:11,855 INFO:Task order: ['AU', 'AV', 'FER']
2024-03-16 01:40:11,881 INFO:Net(
  (layer1): Sequential(
    (0): Conv2d(3, 24, kernel_size=(3, 3), stride=(1, 1), padding=(1, 1))
    (1): ReLU()
    (2): BatchNorm2d(24, eps=1e-05, momentum=0.1, affine=True, track_running_stats=True)
    (3): Conv2d(24, 24, kernel_size=(3, 3), stride=(1, 1), padding=(1, 1))
    (4): ReLU()
    (5): BatchNorm2d(24, eps=1e-05, momentum=0.1, affine=True, track_running_stats=True)
    (6): MaxPool2d(kernel_size=(2, 2), stride=(2, 2), padding=0, dilation=1, ceil_mode=False)
    (7): Dropout(p=0.4, inplace=False)
  )
  (layer2): Sequential(
    (0): Conv2d(24, 48, kernel_size=(3, 3), stride=(1, 1), padding=(1, 1))
    (1): ReLU()
    (2): BatchNorm2d(48, eps=1e-05, momentum=0.1, affine=True, track_running_stats=True)
    (3): Conv2d(48, 48, kernel_size=(3, 3), stride=(1, 1), padding=(1, 1))
    (4): ReLU()
    (5): BatchNorm2d(48, eps=1e-05, momentum=0.1, affine=True, track_running_stats=True)
    (6): MaxPool2d(kernel_size=(2, 2), stride=(2, 2), padding=0, dilation=1, ceil_mode=False)
    (7): Dropout(p=0.4, inplace=False)
  )
  (layer3): Sequential(
    (0): Conv2d(48, 96, kernel_size=(3, 3), stride=(1, 1), padding=(1, 1))
    (1): ReLU()
    (2): BatchNorm2d(96, eps=1e-05, momentum=0.1, affine=True, track_running_stats=True)
    (3): Conv2d(96, 96, kernel_size=(3, 3), stride=(1, 1), padding=(1, 1))
    (4): ReLU()
    (5): BatchNorm2d(96, eps=1e-05, momentum=0.1, affine=True, track_running_stats=True)
    (6): MaxPool2d(kernel_size=(2, 2), stride=(2, 2), padding=0, dilation=1, ceil_mode=False)
    (7): Dropout(p=0.4, inplace=False)
  )
  (layer4): Sequential(
    (0): Conv2d(96, 192, kernel_size=(3, 3), stride=(1, 1), padding=(1, 1))
    (1): ReLU()
    (2): BatchNorm2d(192, eps=1e-05, momentum=0.1, affine=True, track_running_stats=True)
    (3): Conv2d(192, 192, kernel_size=(3, 3), stride=(1, 1), padding=(1, 1))
    (4): ReLU()
    (5): BatchNorm2d(192, eps=1e-05, momentum=0.1, affine=True, track_running_stats=True)
    (6): MaxPool2d(kernel_size=(2, 2), stride=(2, 2), padding=0, dilation=1, ceil_mode=False)
    (7): Dropout(p=0.4, inplace=False)
  )
  (flat): Flatten(start_dim=1, end_dim=-1)
  (fc1): Linear(in_features=6912, out_features=192, bias=True)
  (fc2): Linear(in_features=192, out_features=96, bias=True)
  (last2): Linear(in_features=96, out_features=48, bias=True)
  (last): ModuleDict(
    (FER): Linear(in_features=48, out_features=7, bias=True)
    (AU): Linear(in_features=48, out_features=12, bias=True)
    (AV): Linear(in_features=48, out_features=2, bias=True)
  )
)
2024-03-16 01:40:11,882 INFO:213
2024-03-16 01:40:11,882 INFO:====================== AU =======================
2024-03-16 01:40:11,883 INFO:Incremental class: Old valid output dimension: 0
2024-03-16 01:40:11,883 INFO:Incremental class: New Valid output dimension: 12
2024-03-16 01:40:24,577 INFO:got args, entered main
2024-03-16 01:40:28,621 INFO:Loaded AffWild2 for ALLDATA
2024-03-16 01:40:28,621 INFO:------------------------------------------------------------
2024-03-16 01:40:28,622 INFO:Task order: ['AU', 'AV', 'FER']
2024-03-16 01:40:28,648 INFO:Net(
  (layer1): Sequential(
    (0): Conv2d(3, 24, kernel_size=(3, 3), stride=(1, 1), padding=(1, 1))
    (1): ReLU()
    (2): BatchNorm2d(24, eps=1e-05, momentum=0.1, affine=True, track_running_stats=True)
    (3): Conv2d(24, 24, kernel_size=(3, 3), stride=(1, 1), padding=(1, 1))
    (4): ReLU()
    (5): BatchNorm2d(24, eps=1e-05, momentum=0.1, affine=True, track_running_stats=True)
    (6): MaxPool2d(kernel_size=(2, 2), stride=(2, 2), padding=0, dilation=1, ceil_mode=False)
    (7): Dropout(p=0.4, inplace=False)
  )
  (layer2): Sequential(
    (0): Conv2d(24, 48, kernel_size=(3, 3), stride=(1, 1), padding=(1, 1))
    (1): ReLU()
    (2): BatchNorm2d(48, eps=1e-05, momentum=0.1, affine=True, track_running_stats=True)
    (3): Conv2d(48, 48, kernel_size=(3, 3), stride=(1, 1), padding=(1, 1))
    (4): ReLU()
    (5): BatchNorm2d(48, eps=1e-05, momentum=0.1, affine=True, track_running_stats=True)
    (6): MaxPool2d(kernel_size=(2, 2), stride=(2, 2), padding=0, dilation=1, ceil_mode=False)
    (7): Dropout(p=0.4, inplace=False)
  )
  (layer3): Sequential(
    (0): Conv2d(48, 96, kernel_size=(3, 3), stride=(1, 1), padding=(1, 1))
    (1): ReLU()
    (2): BatchNorm2d(96, eps=1e-05, momentum=0.1, affine=True, track_running_stats=True)
    (3): Conv2d(96, 96, kernel_size=(3, 3), stride=(1, 1), padding=(1, 1))
    (4): ReLU()
    (5): BatchNorm2d(96, eps=1e-05, momentum=0.1, affine=True, track_running_stats=True)
    (6): MaxPool2d(kernel_size=(2, 2), stride=(2, 2), padding=0, dilation=1, ceil_mode=False)
    (7): Dropout(p=0.4, inplace=False)
  )
  (layer4): Sequential(
    (0): Conv2d(96, 192, kernel_size=(3, 3), stride=(1, 1), padding=(1, 1))
    (1): ReLU()
    (2): BatchNorm2d(192, eps=1e-05, momentum=0.1, affine=True, track_running_stats=True)
    (3): Conv2d(192, 192, kernel_size=(3, 3), stride=(1, 1), padding=(1, 1))
    (4): ReLU()
    (5): BatchNorm2d(192, eps=1e-05, momentum=0.1, affine=True, track_running_stats=True)
    (6): MaxPool2d(kernel_size=(2, 2), stride=(2, 2), padding=0, dilation=1, ceil_mode=False)
    (7): Dropout(p=0.4, inplace=False)
  )
  (flat): Flatten(start_dim=1, end_dim=-1)
  (fc1): Linear(in_features=6912, out_features=192, bias=True)
  (fc2): Linear(in_features=192, out_features=96, bias=True)
  (last2): Linear(in_features=96, out_features=48, bias=True)
  (last): ModuleDict(
    (FER): Linear(in_features=48, out_features=7, bias=True)
    (AU): Linear(in_features=48, out_features=12, bias=True)
    (AV): Linear(in_features=48, out_features=2, bias=True)
  )
)
2024-03-16 01:40:28,648 INFO:213
2024-03-16 01:40:28,648 INFO:====================== AU =======================
2024-03-16 01:40:28,649 INFO:Incremental class: Old valid output dimension: 0
2024-03-16 01:40:28,649 INFO:Incremental class: New Valid output dimension: 12
2024-03-16 01:41:36,001 INFO:got args, entered main
2024-03-16 01:41:39,613 INFO:Loaded AffWild2 for ALLDATA
2024-03-16 01:41:39,614 INFO:------------------------------------------------------------
2024-03-16 01:41:39,615 INFO:Task order: ['AU', 'AV', 'FER']
2024-03-16 01:41:39,643 INFO:Net(
  (layer1): Sequential(
    (0): Conv2d(3, 24, kernel_size=(3, 3), stride=(1, 1), padding=(1, 1))
    (1): ReLU()
    (2): BatchNorm2d(24, eps=1e-05, momentum=0.1, affine=True, track_running_stats=True)
    (3): Conv2d(24, 24, kernel_size=(3, 3), stride=(1, 1), padding=(1, 1))
    (4): ReLU()
    (5): BatchNorm2d(24, eps=1e-05, momentum=0.1, affine=True, track_running_stats=True)
    (6): MaxPool2d(kernel_size=(2, 2), stride=(2, 2), padding=0, dilation=1, ceil_mode=False)
    (7): Dropout(p=0.4, inplace=False)
  )
  (layer2): Sequential(
    (0): Conv2d(24, 48, kernel_size=(3, 3), stride=(1, 1), padding=(1, 1))
    (1): ReLU()
    (2): BatchNorm2d(48, eps=1e-05, momentum=0.1, affine=True, track_running_stats=True)
    (3): Conv2d(48, 48, kernel_size=(3, 3), stride=(1, 1), padding=(1, 1))
    (4): ReLU()
    (5): BatchNorm2d(48, eps=1e-05, momentum=0.1, affine=True, track_running_stats=True)
    (6): MaxPool2d(kernel_size=(2, 2), stride=(2, 2), padding=0, dilation=1, ceil_mode=False)
    (7): Dropout(p=0.4, inplace=False)
  )
  (layer3): Sequential(
    (0): Conv2d(48, 96, kernel_size=(3, 3), stride=(1, 1), padding=(1, 1))
    (1): ReLU()
    (2): BatchNorm2d(96, eps=1e-05, momentum=0.1, affine=True, track_running_stats=True)
    (3): Conv2d(96, 96, kernel_size=(3, 3), stride=(1, 1), padding=(1, 1))
    (4): ReLU()
    (5): BatchNorm2d(96, eps=1e-05, momentum=0.1, affine=True, track_running_stats=True)
    (6): MaxPool2d(kernel_size=(2, 2), stride=(2, 2), padding=0, dilation=1, ceil_mode=False)
    (7): Dropout(p=0.4, inplace=False)
  )
  (layer4): Sequential(
    (0): Conv2d(96, 192, kernel_size=(3, 3), stride=(1, 1), padding=(1, 1))
    (1): ReLU()
    (2): BatchNorm2d(192, eps=1e-05, momentum=0.1, affine=True, track_running_stats=True)
    (3): Conv2d(192, 192, kernel_size=(3, 3), stride=(1, 1), padding=(1, 1))
    (4): ReLU()
    (5): BatchNorm2d(192, eps=1e-05, momentum=0.1, affine=True, track_running_stats=True)
    (6): MaxPool2d(kernel_size=(2, 2), stride=(2, 2), padding=0, dilation=1, ceil_mode=False)
    (7): Dropout(p=0.4, inplace=False)
  )
  (flat): Flatten(start_dim=1, end_dim=-1)
  (fc1): Linear(in_features=6912, out_features=192, bias=True)
  (fc2): Linear(in_features=192, out_features=96, bias=True)
  (last2): Linear(in_features=96, out_features=48, bias=True)
  (last): ModuleDict(
    (FER): Linear(in_features=48, out_features=7, bias=True)
    (AU): Linear(in_features=48, out_features=12, bias=True)
    (AV): Linear(in_features=48, out_features=2, bias=True)
  )
)
2024-03-16 01:41:39,643 INFO:213
2024-03-16 01:41:39,643 INFO:====================== AU =======================
2024-03-16 01:41:39,644 INFO:Incremental class: Old valid output dimension: 0
2024-03-16 01:41:39,644 INFO:Incremental class: New Valid output dimension: 12
2024-03-16 01:41:53,696 INFO:got args, entered main
2024-03-16 01:41:57,389 INFO:Loaded AffWild2 for ALLDATA
2024-03-16 01:41:57,390 INFO:------------------------------------------------------------
2024-03-16 01:41:57,391 INFO:Task order: ['AU', 'AV', 'FER']
2024-03-16 01:41:57,418 INFO:Net(
  (layer1): Sequential(
    (0): Conv2d(3, 24, kernel_size=(3, 3), stride=(1, 1), padding=(1, 1))
    (1): ReLU()
    (2): BatchNorm2d(24, eps=1e-05, momentum=0.1, affine=True, track_running_stats=True)
    (3): Conv2d(24, 24, kernel_size=(3, 3), stride=(1, 1), padding=(1, 1))
    (4): ReLU()
    (5): BatchNorm2d(24, eps=1e-05, momentum=0.1, affine=True, track_running_stats=True)
    (6): MaxPool2d(kernel_size=(2, 2), stride=(2, 2), padding=0, dilation=1, ceil_mode=False)
    (7): Dropout(p=0.4, inplace=False)
  )
  (layer2): Sequential(
    (0): Conv2d(24, 48, kernel_size=(3, 3), stride=(1, 1), padding=(1, 1))
    (1): ReLU()
    (2): BatchNorm2d(48, eps=1e-05, momentum=0.1, affine=True, track_running_stats=True)
    (3): Conv2d(48, 48, kernel_size=(3, 3), stride=(1, 1), padding=(1, 1))
    (4): ReLU()
    (5): BatchNorm2d(48, eps=1e-05, momentum=0.1, affine=True, track_running_stats=True)
    (6): MaxPool2d(kernel_size=(2, 2), stride=(2, 2), padding=0, dilation=1, ceil_mode=False)
    (7): Dropout(p=0.4, inplace=False)
  )
  (layer3): Sequential(
    (0): Conv2d(48, 96, kernel_size=(3, 3), stride=(1, 1), padding=(1, 1))
    (1): ReLU()
    (2): BatchNorm2d(96, eps=1e-05, momentum=0.1, affine=True, track_running_stats=True)
    (3): Conv2d(96, 96, kernel_size=(3, 3), stride=(1, 1), padding=(1, 1))
    (4): ReLU()
    (5): BatchNorm2d(96, eps=1e-05, momentum=0.1, affine=True, track_running_stats=True)
    (6): MaxPool2d(kernel_size=(2, 2), stride=(2, 2), padding=0, dilation=1, ceil_mode=False)
    (7): Dropout(p=0.4, inplace=False)
  )
  (layer4): Sequential(
    (0): Conv2d(96, 192, kernel_size=(3, 3), stride=(1, 1), padding=(1, 1))
    (1): ReLU()
    (2): BatchNorm2d(192, eps=1e-05, momentum=0.1, affine=True, track_running_stats=True)
    (3): Conv2d(192, 192, kernel_size=(3, 3), stride=(1, 1), padding=(1, 1))
    (4): ReLU()
    (5): BatchNorm2d(192, eps=1e-05, momentum=0.1, affine=True, track_running_stats=True)
    (6): MaxPool2d(kernel_size=(2, 2), stride=(2, 2), padding=0, dilation=1, ceil_mode=False)
    (7): Dropout(p=0.4, inplace=False)
  )
  (flat): Flatten(start_dim=1, end_dim=-1)
  (fc1): Linear(in_features=6912, out_features=192, bias=True)
  (fc2): Linear(in_features=192, out_features=96, bias=True)
  (last2): Linear(in_features=96, out_features=48, bias=True)
  (last): ModuleDict(
    (FER): Linear(in_features=48, out_features=7, bias=True)
    (AU): Linear(in_features=48, out_features=12, bias=True)
    (AV): Linear(in_features=48, out_features=2, bias=True)
  )
)
2024-03-16 01:41:57,419 INFO:213
2024-03-16 01:41:57,419 INFO:====================== AU =======================
2024-03-16 01:41:57,420 INFO:Incremental class: Old valid output dimension: 0
2024-03-16 01:41:57,420 INFO:Incremental class: New Valid output dimension: 12
2024-03-16 01:42:33,164 INFO:got args, entered main
2024-03-16 01:42:37,117 INFO:Loaded AffWild2 for ALLDATA
2024-03-16 01:42:37,117 INFO:------------------------------------------------------------
2024-03-16 01:42:37,118 INFO:Task order: ['AU', 'AV', 'FER']
2024-03-16 01:42:37,145 INFO:Net(
  (layer1): Sequential(
    (0): Conv2d(3, 24, kernel_size=(3, 3), stride=(1, 1), padding=(1, 1))
    (1): ReLU()
    (2): BatchNorm2d(24, eps=1e-05, momentum=0.1, affine=True, track_running_stats=True)
    (3): Conv2d(24, 24, kernel_size=(3, 3), stride=(1, 1), padding=(1, 1))
    (4): ReLU()
    (5): BatchNorm2d(24, eps=1e-05, momentum=0.1, affine=True, track_running_stats=True)
    (6): MaxPool2d(kernel_size=(2, 2), stride=(2, 2), padding=0, dilation=1, ceil_mode=False)
    (7): Dropout(p=0.4, inplace=False)
  )
  (layer2): Sequential(
    (0): Conv2d(24, 48, kernel_size=(3, 3), stride=(1, 1), padding=(1, 1))
    (1): ReLU()
    (2): BatchNorm2d(48, eps=1e-05, momentum=0.1, affine=True, track_running_stats=True)
    (3): Conv2d(48, 48, kernel_size=(3, 3), stride=(1, 1), padding=(1, 1))
    (4): ReLU()
    (5): BatchNorm2d(48, eps=1e-05, momentum=0.1, affine=True, track_running_stats=True)
    (6): MaxPool2d(kernel_size=(2, 2), stride=(2, 2), padding=0, dilation=1, ceil_mode=False)
    (7): Dropout(p=0.4, inplace=False)
  )
  (layer3): Sequential(
    (0): Conv2d(48, 96, kernel_size=(3, 3), stride=(1, 1), padding=(1, 1))
    (1): ReLU()
    (2): BatchNorm2d(96, eps=1e-05, momentum=0.1, affine=True, track_running_stats=True)
    (3): Conv2d(96, 96, kernel_size=(3, 3), stride=(1, 1), padding=(1, 1))
    (4): ReLU()
    (5): BatchNorm2d(96, eps=1e-05, momentum=0.1, affine=True, track_running_stats=True)
    (6): MaxPool2d(kernel_size=(2, 2), stride=(2, 2), padding=0, dilation=1, ceil_mode=False)
    (7): Dropout(p=0.4, inplace=False)
  )
  (layer4): Sequential(
    (0): Conv2d(96, 192, kernel_size=(3, 3), stride=(1, 1), padding=(1, 1))
    (1): ReLU()
    (2): BatchNorm2d(192, eps=1e-05, momentum=0.1, affine=True, track_running_stats=True)
    (3): Conv2d(192, 192, kernel_size=(3, 3), stride=(1, 1), padding=(1, 1))
    (4): ReLU()
    (5): BatchNorm2d(192, eps=1e-05, momentum=0.1, affine=True, track_running_stats=True)
    (6): MaxPool2d(kernel_size=(2, 2), stride=(2, 2), padding=0, dilation=1, ceil_mode=False)
    (7): Dropout(p=0.4, inplace=False)
  )
  (flat): Flatten(start_dim=1, end_dim=-1)
  (fc1): Linear(in_features=6912, out_features=192, bias=True)
  (fc2): Linear(in_features=192, out_features=96, bias=True)
  (last2): Linear(in_features=96, out_features=48, bias=True)
  (last): ModuleDict(
    (FER): Linear(in_features=48, out_features=7, bias=True)
    (AU): Linear(in_features=48, out_features=12, bias=True)
    (AV): Linear(in_features=48, out_features=2, bias=True)
  )
)
2024-03-16 01:42:37,145 INFO:213
2024-03-16 01:42:37,146 INFO:====================== AU =======================
2024-03-16 01:42:37,146 INFO:Incremental class: Old valid output dimension: 0
2024-03-16 01:42:37,147 INFO:Incremental class: New Valid output dimension: 12
2024-03-16 01:43:15,568 INFO:got args, entered main
2024-03-16 01:43:19,114 INFO:Loaded AffWild2 for ALLDATA
2024-03-16 01:43:19,114 INFO:------------------------------------------------------------
2024-03-16 01:43:19,115 INFO:Task order: ['AU', 'AV', 'FER']
2024-03-16 01:43:19,141 INFO:Net(
  (layer1): Sequential(
    (0): Conv2d(3, 24, kernel_size=(3, 3), stride=(1, 1), padding=(1, 1))
    (1): ReLU()
    (2): BatchNorm2d(24, eps=1e-05, momentum=0.1, affine=True, track_running_stats=True)
    (3): Conv2d(24, 24, kernel_size=(3, 3), stride=(1, 1), padding=(1, 1))
    (4): ReLU()
    (5): BatchNorm2d(24, eps=1e-05, momentum=0.1, affine=True, track_running_stats=True)
    (6): MaxPool2d(kernel_size=(2, 2), stride=(2, 2), padding=0, dilation=1, ceil_mode=False)
    (7): Dropout(p=0.4, inplace=False)
  )
  (layer2): Sequential(
    (0): Conv2d(24, 48, kernel_size=(3, 3), stride=(1, 1), padding=(1, 1))
    (1): ReLU()
    (2): BatchNorm2d(48, eps=1e-05, momentum=0.1, affine=True, track_running_stats=True)
    (3): Conv2d(48, 48, kernel_size=(3, 3), stride=(1, 1), padding=(1, 1))
    (4): ReLU()
    (5): BatchNorm2d(48, eps=1e-05, momentum=0.1, affine=True, track_running_stats=True)
    (6): MaxPool2d(kernel_size=(2, 2), stride=(2, 2), padding=0, dilation=1, ceil_mode=False)
    (7): Dropout(p=0.4, inplace=False)
  )
  (layer3): Sequential(
    (0): Conv2d(48, 96, kernel_size=(3, 3), stride=(1, 1), padding=(1, 1))
    (1): ReLU()
    (2): BatchNorm2d(96, eps=1e-05, momentum=0.1, affine=True, track_running_stats=True)
    (3): Conv2d(96, 96, kernel_size=(3, 3), stride=(1, 1), padding=(1, 1))
    (4): ReLU()
    (5): BatchNorm2d(96, eps=1e-05, momentum=0.1, affine=True, track_running_stats=True)
    (6): MaxPool2d(kernel_size=(2, 2), stride=(2, 2), padding=0, dilation=1, ceil_mode=False)
    (7): Dropout(p=0.4, inplace=False)
  )
  (layer4): Sequential(
    (0): Conv2d(96, 192, kernel_size=(3, 3), stride=(1, 1), padding=(1, 1))
    (1): ReLU()
    (2): BatchNorm2d(192, eps=1e-05, momentum=0.1, affine=True, track_running_stats=True)
    (3): Conv2d(192, 192, kernel_size=(3, 3), stride=(1, 1), padding=(1, 1))
    (4): ReLU()
    (5): BatchNorm2d(192, eps=1e-05, momentum=0.1, affine=True, track_running_stats=True)
    (6): MaxPool2d(kernel_size=(2, 2), stride=(2, 2), padding=0, dilation=1, ceil_mode=False)
    (7): Dropout(p=0.4, inplace=False)
  )
  (flat): Flatten(start_dim=1, end_dim=-1)
  (fc1): Linear(in_features=6912, out_features=192, bias=True)
  (fc2): Linear(in_features=192, out_features=96, bias=True)
  (last2): Linear(in_features=96, out_features=48, bias=True)
  (last): ModuleDict(
    (FER): Linear(in_features=48, out_features=7, bias=True)
    (AU): Linear(in_features=48, out_features=12, bias=True)
    (AV): Linear(in_features=48, out_features=2, bias=True)
  )
)
2024-03-16 01:43:19,141 INFO:213
2024-03-16 01:43:19,141 INFO:====================== AU =======================
2024-03-16 01:43:19,143 INFO:Incremental class: Old valid output dimension: 0
2024-03-16 01:43:19,143 INFO:Incremental class: New Valid output dimension: 12
2024-03-16 01:44:04,324 INFO:got args, entered main
2024-03-16 01:44:07,932 INFO:Loaded AffWild2 for ALLDATA
2024-03-16 01:44:07,933 INFO:------------------------------------------------------------
2024-03-16 01:44:07,933 INFO:Task order: ['AU', 'AV', 'FER']
2024-03-16 01:44:07,961 INFO:Net(
  (layer1): Sequential(
    (0): Conv2d(3, 24, kernel_size=(3, 3), stride=(1, 1), padding=(1, 1))
    (1): ReLU()
    (2): BatchNorm2d(24, eps=1e-05, momentum=0.1, affine=True, track_running_stats=True)
    (3): Conv2d(24, 24, kernel_size=(3, 3), stride=(1, 1), padding=(1, 1))
    (4): ReLU()
    (5): BatchNorm2d(24, eps=1e-05, momentum=0.1, affine=True, track_running_stats=True)
    (6): MaxPool2d(kernel_size=(2, 2), stride=(2, 2), padding=0, dilation=1, ceil_mode=False)
    (7): Dropout(p=0.4, inplace=False)
  )
  (layer2): Sequential(
    (0): Conv2d(24, 48, kernel_size=(3, 3), stride=(1, 1), padding=(1, 1))
    (1): ReLU()
    (2): BatchNorm2d(48, eps=1e-05, momentum=0.1, affine=True, track_running_stats=True)
    (3): Conv2d(48, 48, kernel_size=(3, 3), stride=(1, 1), padding=(1, 1))
    (4): ReLU()
    (5): BatchNorm2d(48, eps=1e-05, momentum=0.1, affine=True, track_running_stats=True)
    (6): MaxPool2d(kernel_size=(2, 2), stride=(2, 2), padding=0, dilation=1, ceil_mode=False)
    (7): Dropout(p=0.4, inplace=False)
  )
  (layer3): Sequential(
    (0): Conv2d(48, 96, kernel_size=(3, 3), stride=(1, 1), padding=(1, 1))
    (1): ReLU()
    (2): BatchNorm2d(96, eps=1e-05, momentum=0.1, affine=True, track_running_stats=True)
    (3): Conv2d(96, 96, kernel_size=(3, 3), stride=(1, 1), padding=(1, 1))
    (4): ReLU()
    (5): BatchNorm2d(96, eps=1e-05, momentum=0.1, affine=True, track_running_stats=True)
    (6): MaxPool2d(kernel_size=(2, 2), stride=(2, 2), padding=0, dilation=1, ceil_mode=False)
    (7): Dropout(p=0.4, inplace=False)
  )
  (layer4): Sequential(
    (0): Conv2d(96, 192, kernel_size=(3, 3), stride=(1, 1), padding=(1, 1))
    (1): ReLU()
    (2): BatchNorm2d(192, eps=1e-05, momentum=0.1, affine=True, track_running_stats=True)
    (3): Conv2d(192, 192, kernel_size=(3, 3), stride=(1, 1), padding=(1, 1))
    (4): ReLU()
    (5): BatchNorm2d(192, eps=1e-05, momentum=0.1, affine=True, track_running_stats=True)
    (6): MaxPool2d(kernel_size=(2, 2), stride=(2, 2), padding=0, dilation=1, ceil_mode=False)
    (7): Dropout(p=0.4, inplace=False)
  )
  (flat): Flatten(start_dim=1, end_dim=-1)
  (fc1): Linear(in_features=6912, out_features=192, bias=True)
  (fc2): Linear(in_features=192, out_features=96, bias=True)
  (last2): Linear(in_features=96, out_features=48, bias=True)
  (last): ModuleDict(
    (FER): Linear(in_features=48, out_features=7, bias=True)
    (AU): Linear(in_features=48, out_features=12, bias=True)
    (AV): Linear(in_features=48, out_features=2, bias=True)
  )
)
2024-03-16 01:44:07,961 INFO:213
2024-03-16 01:44:07,962 INFO:====================== AU =======================
2024-03-16 01:44:07,962 INFO:Incremental class: Old valid output dimension: 0
2024-03-16 01:44:07,962 INFO:Incremental class: New Valid output dimension: 12
2024-03-16 01:47:14,267 INFO:got args, entered main
2024-03-16 01:47:17,771 INFO:Loaded AffWild2 for ALLDATA
2024-03-16 01:47:17,772 INFO:------------------------------------------------------------
2024-03-16 01:47:17,772 INFO:Task order: ['AU', 'AV', 'FER']
2024-03-16 01:47:17,799 INFO:Net(
  (layer1): Sequential(
    (0): Conv2d(3, 24, kernel_size=(3, 3), stride=(1, 1), padding=(1, 1))
    (1): ReLU()
    (2): BatchNorm2d(24, eps=1e-05, momentum=0.1, affine=True, track_running_stats=True)
    (3): Conv2d(24, 24, kernel_size=(3, 3), stride=(1, 1), padding=(1, 1))
    (4): ReLU()
    (5): BatchNorm2d(24, eps=1e-05, momentum=0.1, affine=True, track_running_stats=True)
    (6): MaxPool2d(kernel_size=(2, 2), stride=(2, 2), padding=0, dilation=1, ceil_mode=False)
    (7): Dropout(p=0.4, inplace=False)
  )
  (layer2): Sequential(
    (0): Conv2d(24, 48, kernel_size=(3, 3), stride=(1, 1), padding=(1, 1))
    (1): ReLU()
    (2): BatchNorm2d(48, eps=1e-05, momentum=0.1, affine=True, track_running_stats=True)
    (3): Conv2d(48, 48, kernel_size=(3, 3), stride=(1, 1), padding=(1, 1))
    (4): ReLU()
    (5): BatchNorm2d(48, eps=1e-05, momentum=0.1, affine=True, track_running_stats=True)
    (6): MaxPool2d(kernel_size=(2, 2), stride=(2, 2), padding=0, dilation=1, ceil_mode=False)
    (7): Dropout(p=0.4, inplace=False)
  )
  (layer3): Sequential(
    (0): Conv2d(48, 96, kernel_size=(3, 3), stride=(1, 1), padding=(1, 1))
    (1): ReLU()
    (2): BatchNorm2d(96, eps=1e-05, momentum=0.1, affine=True, track_running_stats=True)
    (3): Conv2d(96, 96, kernel_size=(3, 3), stride=(1, 1), padding=(1, 1))
    (4): ReLU()
    (5): BatchNorm2d(96, eps=1e-05, momentum=0.1, affine=True, track_running_stats=True)
    (6): MaxPool2d(kernel_size=(2, 2), stride=(2, 2), padding=0, dilation=1, ceil_mode=False)
    (7): Dropout(p=0.4, inplace=False)
  )
  (layer4): Sequential(
    (0): Conv2d(96, 192, kernel_size=(3, 3), stride=(1, 1), padding=(1, 1))
    (1): ReLU()
    (2): BatchNorm2d(192, eps=1e-05, momentum=0.1, affine=True, track_running_stats=True)
    (3): Conv2d(192, 192, kernel_size=(3, 3), stride=(1, 1), padding=(1, 1))
    (4): ReLU()
    (5): BatchNorm2d(192, eps=1e-05, momentum=0.1, affine=True, track_running_stats=True)
    (6): MaxPool2d(kernel_size=(2, 2), stride=(2, 2), padding=0, dilation=1, ceil_mode=False)
    (7): Dropout(p=0.4, inplace=False)
  )
  (flat): Flatten(start_dim=1, end_dim=-1)
  (fc1): Linear(in_features=6912, out_features=192, bias=True)
  (fc2): Linear(in_features=192, out_features=96, bias=True)
  (last2): Linear(in_features=96, out_features=48, bias=True)
  (last): ModuleDict(
    (FER): Linear(in_features=48, out_features=7, bias=True)
    (AU): Linear(in_features=48, out_features=12, bias=True)
    (AV): Linear(in_features=48, out_features=2, bias=True)
  )
)
2024-03-16 01:47:17,799 INFO:213
2024-03-16 01:47:17,800 INFO:====================== AU =======================
2024-03-16 01:47:17,800 INFO:Incremental class: Old valid output dimension: 0
2024-03-16 01:47:17,801 INFO:Incremental class: New Valid output dimension: 12
2024-03-16 21:29:33,361 INFO:got args, entered main
2024-03-16 21:29:40,807 INFO:Loaded AffWild2 for ALLDATA
2024-03-16 21:29:40,808 INFO:------------------------------------------------------------
2024-03-16 21:29:40,808 INFO:Task order: ['AU', 'AV', 'FER']
2024-03-16 21:29:40,907 INFO:Net(
  (layer1): Sequential(
    (0): Conv2d(3, 24, kernel_size=(3, 3), stride=(1, 1), padding=(1, 1))
    (1): ReLU()
    (2): BatchNorm2d(24, eps=1e-05, momentum=0.1, affine=True, track_running_stats=True)
    (3): Conv2d(24, 24, kernel_size=(3, 3), stride=(1, 1), padding=(1, 1))
    (4): ReLU()
    (5): BatchNorm2d(24, eps=1e-05, momentum=0.1, affine=True, track_running_stats=True)
    (6): MaxPool2d(kernel_size=(2, 2), stride=(2, 2), padding=0, dilation=1, ceil_mode=False)
    (7): Dropout(p=0.4, inplace=False)
  )
  (layer2): Sequential(
    (0): Conv2d(24, 48, kernel_size=(3, 3), stride=(1, 1), padding=(1, 1))
    (1): ReLU()
    (2): BatchNorm2d(48, eps=1e-05, momentum=0.1, affine=True, track_running_stats=True)
    (3): Conv2d(48, 48, kernel_size=(3, 3), stride=(1, 1), padding=(1, 1))
    (4): ReLU()
    (5): BatchNorm2d(48, eps=1e-05, momentum=0.1, affine=True, track_running_stats=True)
    (6): MaxPool2d(kernel_size=(2, 2), stride=(2, 2), padding=0, dilation=1, ceil_mode=False)
    (7): Dropout(p=0.4, inplace=False)
  )
  (layer3): Sequential(
    (0): Conv2d(48, 96, kernel_size=(3, 3), stride=(1, 1), padding=(1, 1))
    (1): ReLU()
    (2): BatchNorm2d(96, eps=1e-05, momentum=0.1, affine=True, track_running_stats=True)
    (3): Conv2d(96, 96, kernel_size=(3, 3), stride=(1, 1), padding=(1, 1))
    (4): ReLU()
    (5): BatchNorm2d(96, eps=1e-05, momentum=0.1, affine=True, track_running_stats=True)
    (6): MaxPool2d(kernel_size=(2, 2), stride=(2, 2), padding=0, dilation=1, ceil_mode=False)
    (7): Dropout(p=0.4, inplace=False)
  )
  (layer4): Sequential(
    (0): Conv2d(96, 192, kernel_size=(3, 3), stride=(1, 1), padding=(1, 1))
    (1): ReLU()
    (2): BatchNorm2d(192, eps=1e-05, momentum=0.1, affine=True, track_running_stats=True)
    (3): Conv2d(192, 192, kernel_size=(3, 3), stride=(1, 1), padding=(1, 1))
    (4): ReLU()
    (5): BatchNorm2d(192, eps=1e-05, momentum=0.1, affine=True, track_running_stats=True)
    (6): MaxPool2d(kernel_size=(2, 2), stride=(2, 2), padding=0, dilation=1, ceil_mode=False)
    (7): Dropout(p=0.4, inplace=False)
  )
  (flat): Flatten(start_dim=1, end_dim=-1)
  (fc1): Linear(in_features=6912, out_features=192, bias=True)
  (fc2): Linear(in_features=192, out_features=96, bias=True)
  (last2): Linear(in_features=96, out_features=48, bias=True)
  (last): ModuleDict(
    (FER): Linear(in_features=48, out_features=7, bias=True)
    (AU): Linear(in_features=48, out_features=12, bias=True)
    (AV): Linear(in_features=48, out_features=2, bias=True)
  )
)
2024-03-16 21:29:40,907 INFO:213
2024-03-16 21:29:40,907 INFO:====================== AU =======================
2024-03-16 21:29:40,909 INFO:Incremental class: Old valid output dimension: 0
2024-03-16 21:29:40,910 INFO:Incremental class: New Valid output dimension: 12
2024-03-16 21:29:40,910 INFO:#reg_term: 0
2024-03-16 21:29:40,910 INFO:Epoch:0
…
