…
2024-01-30 08:04:15,797 INFO:Validation dataset shape for task FER: 3068
2024-01-30 08:04:15,799 INFO:Validation dataset sample shape for task FER - x: torch.Size([3, 100, 100]), y: torch.Size([])
2024-01-30 08:04:15,799 INFO:Validation dataset shape for task AV: 26531
2024-01-30 08:04:15,801 INFO:Validation dataset sample shape for task AV - x: torch.Size([3, 100, 100]), y: torch.Size([2])
2024-01-30 08:04:15,801 INFO:------------------------------------------------------------
2024-01-30 08:04:15,801 INFO:Task order: ['AU', 'AV', 'FER']
2024-01-30 08:04:15,826 INFO:Net(
  (layer1): Sequential(
    (0): Conv2d(3, 24, kernel_size=(3, 3), stride=(1, 1), padding=(1, 1))
    (1): ReLU()
    (2): BatchNorm2d(24, eps=1e-05, momentum=0.1, affine=True, track_running_stats=True)
    (3): Conv2d(24, 24, kernel_size=(3, 3), stride=(1, 1), padding=(1, 1))
    (4): ReLU()
    (5): BatchNorm2d(24, eps=1e-05, momentum=0.1, affine=True, track_running_stats=True)
    (6): MaxPool2d(kernel_size=(2, 2), stride=(2, 2), padding=0, dilation=1, ceil_mode=False)
    (7): Dropout(p=0.4, inplace=False)
  )
  (layer2): Sequential(
    (0): Conv2d(24, 48, kernel_size=(3, 3), stride=(1, 1), padding=(1, 1))
    (1): ReLU()
    (2): BatchNorm2d(48, eps=1e-05, momentum=0.1, affine=True, track_running_stats=True)
    (3): Conv2d(48, 48, kernel_size=(3, 3), stride=(1, 1), padding=(1, 1))
    (4): ReLU()
    (5): BatchNorm2d(48, eps=1e-05, momentum=0.1, affine=True, track_running_stats=True)
    (6): MaxPool2d(kernel_size=(2, 2), stride=(2, 2), padding=0, dilation=1, ceil_mode=False)
    (7): Dropout(p=0.4, inplace=False)
  )
  (layer3): Sequential(
    (0): Conv2d(48, 96, kernel_size=(3, 3), stride=(1, 1), padding=(1, 1))
    (1): ReLU()
    (2): BatchNorm2d(96, eps=1e-05, momentum=0.1, affine=True, track_running_stats=True)
    (3): Conv2d(96, 96, kernel_size=(3, 3), stride=(1, 1), padding=(1, 1))
    (4): ReLU()
    (5): BatchNorm2d(96, eps=1e-05, momentum=0.1, affine=True, track_running_stats=True)
    (6): MaxPool2d(kernel_size=(2, 2), stride=(2, 2), padding=0, dilation=1, ceil_mode=False)
    (7): Dropout(p=0.4, inplace=False)
  )
  (layer4): Sequential(
    (0): Conv2d(96, 192, kernel_size=(3, 3), stride=(1, 1), padding=(1, 1))
    (1): ReLU()
    (2): BatchNorm2d(192, eps=1e-05, momentum=0.1, affine=True, track_running_stats=True)
    (3): Conv2d(192, 192, kernel_size=(3, 3), stride=(1, 1), padding=(1, 1))
    (4): ReLU()
    (5): BatchNorm2d(192, eps=1e-05, momentum=0.1, affine=True, track_running_stats=True)
    (6): MaxPool2d(kernel_size=(2, 2), stride=(2, 2), padding=0, dilation=1, ceil_mode=False)
    (7): Dropout(p=0.4, inplace=False)
  )
  (flat): Flatten(start_dim=1, end_dim=-1)
  (fc1): Linear(in_features=6912, out_features=192, bias=True)
  (fc2): Linear(in_features=192, out_features=96, bias=True)
  (last2): Linear(in_features=96, out_features=48, bias=True)
  (last): ModuleDict(
    (FER): Linear(in_features=48, out_features=7, bias=True)
    (AU): Linear(in_features=48, out_features=12, bias=True)
    (AV): Linear(in_features=48, out_features=2, bias=True)
  )
)
2024-01-30 08:04:15,826 INFO:117477
2024-01-30 08:04:15,826 INFO:====================== AU =======================
2024-01-30 08:04:15,827 INFO:Incremental class: Old valid output dimension: 0
2024-01-30 08:04:15,827 INFO:Incremental class: New Valid output dimension: 12
2024-01-30 08:04:15,827 INFO:#reg_term: 0
2024-01-30 08:04:15,827 INFO:Epoch:0
2024-01-30 08:04:15,828 INFO:Itr		Time		  Data		  Loss		Acc
…
